tests/data/test_md_model_wacsf.model (torch, 89673 bytes, 18 tensors)

width f4 [2]
0	0x40600000	3.5
1	0x40600000	3.5

offsets f4 [2]
0	0x3f800000	1.0
1	0x40900000	4.5

width f4 [4]
0	0x3f955554	1.1666665
1	0x3f955554	1.1666665
2	0x3f955554	1.1666665
3	0x3f955554	1.1666665

offsets f4 [4]
0	0x3f800000	1.0
1	0x400aaaaa	2.1666665
2	0x40555556	3.3333335
3	0x40900000	4.5

weight f4 [9, 3]
0	0x00000000	0.0
1	0x00000000	0.0
2	0x00000000	0.0
3	0x00000000	0.0
4	0x3f800000	1.0
5	0x00000000	0.0
6	0x00000000	0.0
7	0x00000000	0.0
8	0x00000000	0.0
9	0x00000000	0.0
10	0x00000000	0.0
11	0x00000000	0.0
12	0x00000000	0.0
13	0x00000000	0.0
14	0x00000000	0.0
15	0x00000000	0.0
16	0x00000000	0.0
17	0x00000000	0.0
18	0x00000000	0.0
19	0x00000000	0.0
20	0x3f800000	1.0
21	0x00000000	0.0
22	0x00000000	0.0
23	0x00000000	0.0
24	0x3f800000	1.0
25	0x00000000	0.0
26	0x00000000	0.0

mean f4 [60]
0	0x3ded21ed	0.115787365
1	0x3f0eb442	0.557438
2	0x3eca8121	0.39551643
3	0x3ea96de9	0.33091667
4	0x3feb080f	1.8361834
5	0x3f6f186d	0.93396646
6	0x3ed66543	0.41874132
7	0x4017cfea	2.372065
8	0x3f8d6fa9	1.1049701
9	0x3ee9211e	0.4553308
10	0x402629e3	2.5963066
11	0x3f95e9d1	1.171198
12	0x00000000	0.0
13	0x392cbaff	0.0001647286
14	0x379a5a61	1.8400317e-05
15	0x3b13c30b	0.0022546675
16	0x39ea47c8	0.0004468544
17	0x312c5e6d	2.508297e-09
18	0x00000000	0.0
19	0x3b04d52f	0.002026867
20	0x39b5d69c	0.00034682907
21	0x3cda368c	0.026637338
22	0x3bb56179	0.0055353013
23	0x398604b7	0.00025561985
24	0x00000000	0.0
25	0x3b27dfa8	0.0025615487
26	0x3b3360fe	0.0027371044
27	0x3a64ade1	0.000872342
28	0x3d0d8454	0.034550026
29	0x3bad11b9	0.0052816537
30	0x00000000	0.0
31	0x3b9701b6	0.0046083583
32	0x3bd05dfb	0.0063588596
33	0x3c4e60f2	0.012596356
34	0x3d81efb8	0.06344551
35	0x3c3f4a4d	0.0116754295
36	0x00000000	0.0
37	0x3ca0a363	0.019609159
38	0x3b3dd128	0.0028963778
39	0x3e2464e7	0.16054116
40	0x3cd6df8a	0.026229639
41	0x33edba73	1.10700874e-07
42	0x00000000	0.0
43	0x3e34fa3b	0.1767358
44	0x3d3aa79d	0.045570005
45	0x3f938a14	1.1526513
46	0x3ea39c59	0.3195522
47	0x3c5f0b0d	0.013613475
48	0x00000000	0.0
49	0x3e868c56	0.26278943
50	0x3e3938a9	0.1808802
51	0x3efb54a3	0.4908801
52	0x3fb3b06d	1.4038216
53	0x3eb0f3b7	0.3456094
54	0x00000000	0.0
55	0x3f113cf2	0.5673362
56	0x3ecc184d	0.3986229
57	0x3ffb404f	1.9629
58	0x4025949f	2.587196
59	0x3f377d11	0.7167521

stddev f4 [60]
0	0x3e3780aa	0.17920175
1	0x3ef6aab6	0.48177117
2	0x3e2869f4	0.16446668
3	0x3e81b165	0.25330654
4	0x3f43c844	0.76477456
5	0x3e79d050	0.24395871
6	0x3e860187	0.2617304
7	0x3f4b22d9	0.7935005
8	0x3e88965e	0.2667722
9	0x3e872b5c	0.26400268
10	0x3f4be2d8	0.7964301
11	0x3e8d8eb8	0.27647948
12	0x00000000	0.0
13	0x3a01738a	0.0004938176
14	0x386d5b76	5.6590383e-05
15	0x3ba406b3	0.0050056814
16	0x3a3ce55b	0.00072058075
17	0x32066253	7.822183e-09
18	0x00000000	0.0
19	0x3bb4ae9d	0.0055139796
20	0x3a0edf9b	0.000545019
21	0x3d641289	0.05568174
22	0x3bd52897	0.006505083
23	0x399d6958	0.0003002386
24	0x00000000	0.0
25	0x3bc01ffb	0.0058631874
26	0x3b6c6756	0.0036072335
27	0x3a38f50f	0.00070555595
28	0x3cad195d	0.021130258
29	0x3b8f38af	0.004370771
30	0x00000000	0.0
31	0x3c25dd69	0.010123589
32	0x3c0d9e9b	0.0086437715
33	0x3c980fc0	0.018562198
34	0x3d26e49e	0.04074537
35	0x3c252247	0.010078973
36	0x00000000	0.0
37	0x3d206252	0.039156266
38	0x3c13140d	0.008976948
39	0x3e7f68b9	0.24942292
40	0x3d3035de	0.04302012
41	0x349de51f	2.9410236e-07
42	0x00000000	0.0
43	0x3e8d5ede	0.2761144
44	0x3d8e4132	0.06946029
45	0x3fc1bff3	1.5136703
46	0x3e9da9ec	0.30793703
47	0x3c43c07e	0.011947749
48	0x00000000	0.0
49	0x3e14d733	0.14535217
50	0x3de20ac1	0.110372074
51	0x3e02fb7c	0.12791246
52	0x3e8b3a9f	0.27193162
53	0x3e4ef143	0.20209222
54	0x00000000	0.0
55	0x3e9a3c30	0.30124044
56	0x3e8399b3	0.257032
57	0x3f124b12	0.571458
58	0x3f23dfd1	0.6401339
59	0x3ed8be05	0.42332473

eps f4 [60]
0	0x3089705f	1e-09
1	0x3089705f	1e-09
2	0x3089705f	1e-09
3	0x3089705f	1e-09
4	0x3089705f	1e-09
5	0x3089705f	1e-09
6	0x3089705f	1e-09
7	0x3089705f	1e-09
8	0x3089705f	1e-09
9	0x3089705f	1e-09
10	0x3089705f	1e-09
11	0x3089705f	1e-09
12	0x3089705f	1e-09
13	0x3089705f	1e-09
14	0x3089705f	1e-09
15	0x3089705f	1e-09
16	0x3089705f	1e-09
17	0x3089705f	1e-09
18	0x3089705f	1e-09
19	0x3089705f	1e-09
20	0x3089705f	1e-09
21	0x3089705f	1e-09
22	0x3089705f	1e-09
23	0x3089705f	1e-09
24	0x3089705f	1e-09
25	0x3089705f	1e-09
26	0x3089705f	1e-09
27	0x3089705f	1e-09
28	0x3089705f	1e-09
29	0x3089705f	1e-09
30	0x3089705f	1e-09
31	0x3089705f	1e-09
32	0x3089705f	1e-09
33	0x3089705f	1e-09
34	0x3089705f	1e-09
35	0x3089705f	1e-09
36	0x3089705f	1e-09
37	0x3089705f	1e-09
38	0x3089705f	1e-09
39	0x3089705f	1e-09
40	0x3089705f	1e-09
41	0x3089705f	1e-09
42	0x3089705f	1e-09
43	0x3089705f	1e-09
44	0x3089705f	1e-09
45	0x3089705f	1e-09
46	0x3089705f	1e-09
47	0x3089705f	1e-09
48	0x3089705f	1e-09
49	0x3089705f	1e-09
50	0x3089705f	1e-09
51	0x3089705f	1e-09
52	0x3089705f	1e-09
53	0x3089705f	1e-09
54	0x3089705f	1e-09
55	0x3089705f	1e-09
56	0x3089705f	1e-09
57	0x3089705f	1e-09
58	0x3089705f	1e-09
59	0x3089705f	1e-09

weight f4 [9, 3]
0	0x00000000	0.0
1	0x00000000	0.0
2	0x00000000	0.0
3	0x00000000	0.0
4	0x3f800000	1.0
5	0x00000000	0.0
6	0x00000000	0.0
7	0x00000000	0.0
8	0x00000000	0.0
9	0x00000000	0.0
10	0x00000000	0.0
11	0x00000000	0.0
12	0x00000000	0.0
13	0x00000000	0.0
14	0x00000000	0.0
15	0x00000000	0.0
16	0x00000000	0.0
17	0x00000000	0.0
18	0x00000000	0.0
19	0x00000000	0.0
20	0x3f800000	1.0
21	0x00000000	0.0
22	0x00000000	0.0
23	0x00000000	0.0
24	0x3f800000	1.0
25	0x00000000	0.0
26	0x00000000	0.0

weight f4 [100, 60]
0	0x3d8b9562	0.06815602
1	0x3f945c1e	1.1590612
2	0xbf8a2764	-1.0793271
3	0xbd31e2cd	-0.043429185
4	0x3d867355	0.065649666
5	0xbf54273b	-0.8287236
6	0x3d7d8da7	0.06190267
7	0xbdb5e974	-0.08882418
8	0xbf56b8ac	-0.83875537
9	0x3da2552e	0.07926403
10	0x3e0d6488	0.13807881
11	0xbf4ec2e6	-0.8076614
12	0xbac2df20	-0.0014867522
13	0x3e0f71fa	0.14008322
14	0xbe26b21c	-0.16278881
15	0xbfae5b8b	-1.3621687
16	0x3ef63a77	0.4809148
17	0xbdcb184b	-0.09916743
18	0xbe45c394	-0.19312888
19	0xbb19d049	-0.0023470095
20	0x3ca19cd7	0.019728107
21	0x3f270984	0.65248895
22	0x3e221380	0.15827751
23	0xbf0b6aec	-0.54460025
24	0x3c9dcd34	0.019262888
25	0xbe02d043	-0.12774758
26	0x3df6891f	0.120378725
27	0x3eee676d	0.46563283
28	0x3d829862	0.06376721
29	0xbe7da4f9	-0.24769963
30	0xbbe9739f	-0.007124379
31	0x3e03e382	0.12879756
32	0xbd60a7d3	-0.05484755
33	0xbfef6fc5	-1.8705984
34	0x3cac5987	0.021038784
35	0xbeec7786	-0.4618494
36	0x3e2e977b	0.17049973
37	0x3d78f2f2	0.060778566
38	0x3d424f2e	0.047438793
39	0x3f0d8512	0.55281174
40	0x3f54aa59	0.8307243
41	0x3e4a52ab	0.19758098
42	0x3d0598f0	0.032616556
43	0x3e3e479d	0.18582006
44	0xbe370a6d	-0.17875071
45	0x3dbd3572	0.092387095
46	0x3f7cd54d	0.9876297
47	0x3dc24144	0.09485105
48	0xbdc8cf83	-0.09805205
49	0x3e33af8b	0.17547433
50	0xbe37ee4e	-0.17962
51	0x3db4b155	0.08822886
52	0xbea83284	-0.3285104
53	0xbeb1f62e	-0.34758133
54	0x3cce0a8d	0.025151515
55	0x3e34eb87	0.17667972
56	0x3e3f4437	0.18678366
57	0xbe8d5fd5	-0.27612177
58	0xbf01ec34	-0.5075104
59	0xbee88f34	-0.45421755
60	0x3f0bbf71	0.5458899
61	0x3fe68a28	1.8010912
62	0xbf368378	-0.71294355
63	0x3e95cc2d	0.29257336
64	0x3e6bbed0	0.23022008
65	0xbec11734	-0.37713015
66	0x3ec3d0e0	0.38245296
67	0x3e15ed55	0.14641316
68	0xbea2acb7	-0.31772396
69	0x3e810629	0.25200012
70	0x3ee95750	0.45574427
71	0x3cbe937f	0.023263691
72	0xbd8cbd59	-0.06872053
73	0x3f1f8641	0.6231423
74	0x3e967df2	0.29392964
75	0xbdd272a5	-0.10275773
76	0xbeccffb8	-0.40038848
77	0x3f205836	0.626346
78	0xbdb964ee	-0.09052454
79	0x3f1d0cc3	0.613476
80	0x3ebcc69c	0.36870277
81	0x3f641eb2	0.8910934
82	0x3f0c4ae3	0.5480177
83	0x3f44efc4	0.76928353
84	0xbda26d52	-0.079310074
85	0x3e9f1a72	0.31074864
86	0x3e99dcc1	0.30051234
87	0xbfc0a43d	-1.5050122
88	0xbf914180	-1.1348114
89	0x3f747067	0.9548401
90	0xbe17069c	-0.14748615
91	0x3ef4fe88	0.47850442
92	0x3ee3da42	0.44502455
93	0xbef44ffe	-0.4771728
94	0xbf4f5d79	-0.81002
95	0x3f7488f9	0.95521504
96	0xbab83639	-0.0014054246
97	0x3e8e85b5	0.27836385
98	0x3e7c915a	0.24664822
99	0xbf92bae1	-1.1463281
100	0xc08301ae	-4.093955
101	0x3e22fe72	0.15917376
102	0xbc9494f5	-0.018137434
103	0x3f1e177b	0.6175458
104	0x3eb7c405	0.3589174
105	0x3f86a301	1.0518495
106	0x3f84710b	1.0346998
107	0x3ec2a6a2	0.38017756
108	0xbc301386	-0.010746842
109	0x3f05955e	0.5218104
110	0x3ee8191e	0.45331663
111	0x3f0e4797	0.5557799
112	0xc024590f	-2.5679357
113	0x3f3adf92	0.7299739
114	0x3e2551c9	0.1614448
115	0x3e7640fa	0.24048224
116	0x3ea5ab39	0.32357195
117	0xc02da65c	-2.7132788
118	0xbf9d9898	-1.2312193
119	0x3fce728f	1.612871
120	0xbe563220	-0.20917559
121	0xbf51b129	-0.8191095
122	0x3ea8cfe7	0.32971117
123	0x3d055538	0.032551974
124	0xbf6ee6fb	-0.933212
125	0x3d6fadad	0.05851524
126	0xbe1c27ee	-0.15249607
127	0xbf518553	-0.8184406
128	0x3e920173	0.2851673
129	0xbc63f634	-0.01391368
130	0xbf12c917	-0.5733809
131	0x3cf29580	0.029612303
132	0xbe2bb66f	-0.16768812
133	0x3e00d3b8	0.12580764
134	0x3ddf2552	0.1089579
135	0x400064a6	2.006143
136	0xbd0cd729	-0.03438488
137	0x3ea20fd8	0.31652713
138	0xbdb99f32	-0.09063567
139	0xbe0b07fd	-0.13577266
140	0xbe4123d1	-0.18861319
141	0xbf8e0a2f	-1.1096858
142	0x3dc462bc	0.095891446
143	0xbdf01b2b	-0.11723932
144	0xbe3369ae	-0.17520782
145	0xbc28675b	-0.010278548
146	0xbdf544e0	-0.119760275
147	0xbf0a84e3	-0.5410902
148	0x3d162cc0	0.03666377
149	0xbe900249	-0.28126743
150	0x3d6c62c9	0.057711396
151	0xbe776852	-0.24160889
152	0xbe5ae1c9	-0.21375193
153	0x3f016e98	0.5055938
154	0xbedc5b0d	-0.43038216
155	0xbeb41e15	-0.351792
156	0xbd3366ed	-0.04379933
157	0x3ccc6670	0.02495119
158	0x3d758e3d	0.059950102
159	0xbdc709f7	-0.097186975
160	0x3deb3045	0.11483816
161	0x3d9c3606	0.07627492
162	0x3dfe2b8a	0.12410648
163	0xbdc1b7e2	-0.09458901
164	0x3da28c46	0.07936911
165	0xbebbb472	-0.36661106
166	0xbf2c550c	-0.6731727
167	0xbf092166	-0.53566587
168	0xbe1a2021	-0.15051319
169	0x3b8f0594	0.0043646786
170	0x3b307d6e	0.002693023
171	0x3d7424d1	0.059605423
172	0x3f180aee	0.5939168
173	0x3e3fedeb	0.18743102
174	0xbd25cdfd	-0.04047965
175	0x3b2ee5b5	0.002668721
176	0x3cb820d8	0.022476599
177	0xbe2eb848	-0.17062485
178	0xbe3153e7	-0.17317162
179	0x3cc53489	0.024072902
180	0x3f1a4e04	0.6027529
181	0x3e9db72c	0.30803812
182	0xbd5d7477	-0.054066148
183	0x3f3544d4	0.7080815
184	0xbe7850a1	-0.24249507
185	0xbe077dbe	-0.1323156
186	0x3ed23208	0.41053796
187	0xbd866eac	-0.06564078
188	0xbcfe946f	-0.031076638
189	0x3f2430ab	0.6413676
190	0xbd65076c	-0.05591528
191	0xbe2059d1	-0.15659262
192	0xbd8828e3	-0.066484235
193	0x3f04936f	0.51787466
194	0x3ef1533c	0.47133815
195	0xbf15fd55	-0.5858968
196	0x3d9aa50d	0.07551012
197	0x3eb9161d	0.36149684
198	0xbdb5469c	-0.08851358
199	0x3f209243	0.6272318
200	0x3ec3c997	0.38239738
201	0x3f7e55f1	0.99349886
202	0xbdcb9934	-0.099413306
203	0x3f060cde	0.52363384
204	0x3d7549bf	0.059884783
205	0x3f375856	0.71619165
206	0x3f285306	0.65751684
207	0x3da3ed3d	0.08004234
208	0x3e4c30fd	0.19940563
209	0x3da24c6f	0.07924735
210	0x3dc586d2	0.096448556
211	0x3eebafc0	0.46032524
212	0x3ec2247e	0.37918466
213	0xbf8db32b	-1.1070303
214	0x3d8e255e	0.06940721
215	0x3e51feba	0.20507327
216	0x3dd8b2ec	0.10581002
217	0x3f085eef	0.5326986
218	0x3ee40470	0.44534636
219	0xbd9922ba	-0.07477327
220	0xbd710dad	-0.058850933
221	0x3e7b3c4b	0.24534719
222	0xbdbe958c	-0.093058676
223	0x3f22ddd6	0.63619745
224	0x3eddb2a5	0.43300357
225	0x3d08de9b	0.033415418
226	0x3dcbb082	0.099457756
227	0x3eaf7873	0.34271583
228	0x3d4a9a76	0.04946371
229	0x3ee080cd	0.43848267
230	0x3efaca40	0.4898243
231	0x3e447cc9	0.19188227
232	0xbeea75a3	-0.45792875
233	0x3cd16108	0.025558963
234	0xbe228338	-0.15870368
235	0x3edb5e5f	0.42845437
236	0x3f31e805	0.6949466
237	0xbcdca014	-0.0269318
238	0xbe5a028a	-0.21290031
239	0xbe66dbb3	-0.22544746
240	0x3e1532a1	0.14570095
241	0xc0209234	-2.5089235
242	0x408fea38	4.497341
243	0x3d72f812	0.05931861
244	0x3ed21da2	0.41038233
245	0x3fdff9f8	1.749816
246	0xbc4507fe	-0.012025831
247	0x3f5667a4	0.83751893
248	0x3f43a160	0.76418114
249	0x3c447965	0.011991833
250	0x3f2a2943	0.6646921
251	0x3f402a63	0.75064677
252	0x3dacef08	0.08444029
253	0x3ddacc6d	0.106835224
254	0x3dfb7af7	0.12279313
255	0xbffeb108	-1.9897776

bias f4 [100]
0	0x3b370cb1	0.0027931149
1	0xbedc479e	-0.4302339
2	0x3d6f362a	0.058401264
3	0xbf0f2080	-0.55908966
4	0xbc8b4530	-0.017000765
5	0xbe95b940	-0.29242897
6	0x3e21e3a2	0.15809491
7	0xbdd5e99f	-0.1044495
8	0xbc416eb4	-0.011806179
9	0xbeda7627	-0.42668268
10	0xbe1af8e7	-0.15134011
11	0x3e71dfd9	0.23620547
12	0xbe06a8c3	-0.13150315
13	0xbdfdb1f0	-0.123874545
14	0xbe285b23	-0.16441016
15	0x3d8e5356	0.06949489
16	0xbea1fe62	-0.3163939
17	0xbd5354a3	-0.051594388
18	0x3ecc87d8	0.3994739
19	0x3dc37fbd	0.095458485
20	0x3f20f308	0.62870836
21	0x3ebcd141	0.36878398
22	0xbe24e934	-0.16104585
23	0x3f2b60ed	0.6694477
24	0xbda89ce2	-0.08233048
25	0xbe7b1bf7	-0.24522386
26	0xbc038bc4	-0.008028928
27	0xbe23cf77	-0.1599711
28	0x3f3499e1	0.705473
29	0x3f2c4dfd	0.673065
30	0xbdcdba23	-0.100452684
31	0xbe4cc75f	-0.19997929
32	0x3e1ee2c4	0.15516192
33	0xbe6c6665	-0.23085935
34	0x3efaabc8	0.48959184
35	0xbe134272	-0.14380816
36	0xbe247339	-0.16059579
37	0xbe72bfb3	-0.2370594
38	0xbeb27561	-0.34855178
39	0xbdec41ba	-0.11535974
40	0x3eca2816	0.39483708
41	0xbf05a9e8	-0.5221238
42	0x3f0b9bc1	0.54534537
43	0xbe9a1077	-0.30090687
44	0xbe63a86b	-0.22232215
45	0xbd6e967e	-0.05824899
46	0xbafa41ac	-0.0019093058
47	0x3dbbee60	0.09176326
48	0xbd82e356	-0.06391017
49	0x3f25cff6	0.6477045
50	0x3e6f3740	0.2336092
51	0x3df4e156	0.11957042
52	0x3f23bca9	0.6395975
53	0xbe037b30	-0.12839961
54	0x3d4dc0eb	0.05023281
55	0xbdbc2bde	-0.091880545
56	0x3e85878f	0.26079985
57	0xbe0d2c5e	-0.13786456
58	0x3f29c8d2	0.6632205
59	0x3e0a6073	0.13513355
60	0xbe30d0ac	-0.17267102
61	0xbd0ae8f6	-0.033913575
62	0xbde26711	-0.110548146
63	0xbddcfe38	-0.10790676
64	0x3f165fe6	0.5874008
65	0x3ec38046	0.38183802
66	0x3f1d2c9f	0.6139621
67	0x3f2a34a0	0.6648655
68	0xbd89acdf	-0.06722426
69	0xbe6c3c8c	-0.23069972
70	0x3f24f7de	0.64440715
71	0x3f0c0d9b	0.5470826
72	0x3f25f059	0.64819866
73	0xbe825df9	-0.2546232
74	0xbe0d5aea	-0.13804212
75	0x3f28285f	0.656866
76	0x3d3ce4fe	0.04611682
77	0xbe188e76	-0.14898095
78	0x3f1d5b6c	0.61467624
79	0xbe3a1a97	-0.18174206
80	0xbe4dd34c	-0.20100135
81	0x3f30c608	0.6905217
82	0xbe46f51b	-0.19429438
83	0x3dfdff98	0.12402266
84	0x3f30f24a	0.69119704
85	0x3c90d48d	0.017679477
86	0xbe58a21d	-0.21155591
87	0x3f31cf9b	0.69457406
88	0xbd999db5	-0.07500783
89	0x3ecb6201	0.3972321
90	0xbe1d58d0	-0.1536591
91	0x3f3a7a86	0.72843206
92	0x3e2d0727	0.1689726
93	0xbc4c0453	-0.012452203
94	0x3f2232ad	0.63358575
95	0x3dc03367	0.09384804
96	0xbd2c7832	-0.042106815
97	0x3eaec051	0.341311
98	0xbe83af78	-0.2571981
99	0x3e310555	0.1728719

weight f4 [1, 100]
0	0x3f1efc87	0.62104076
1	0x3f26c37d	0.6514204
2	0xbe96e8bd	-0.2947444
3	0x3e5f3d04	0.2180062
4	0x3fe84012	1.8144553
5	0x3f4d2afc	0.80143714
6	0x3ff4f3c4	1.9136891
7	0x3ec21f43	0.37914476
8	0x3e9f7bf9	0.3114927
9	0x3e2ab493	0.16670446
10	0x3f89e2d3	1.0772346
11	0x3fa6f167	1.304242
12	0x3dad04cf	0.08448183
13	0x3ea724d3	0.32645282
14	0x3fa970c1	1.3237535
15	0xbf37b6d2	-0.71763337
16	0x3e275cba	0.16343966
17	0x3e64ea2b	0.22354953
18	0x3f85d00b	1.0454115
19	0x3fff95f7	1.9967641
20	0xbf0cf779	-0.55065113
21	0xbd9b3f6b	-0.075804554
22	0x3e990a52	0.29890686
23	0xbed67b7b	-0.41891083
24	0x3e4241b3	0.18970375
25	0x3e6d3473	0.23164539
26	0x4039a314	2.9005785
27	0x3df83d69	0.12121088
28	0xbf078981	-0.5294419
29	0xbf008b2a	-0.5021235
30	0x3e83fb99	0.2577789
31	0x3e88ecbd	0.26743117
32	0x3fcf569e	1.6198308
33	0x3de9fa5e	0.11424707
34	0xbe1d0aee	-0.153362
35	0x3e8b0775	0.27154127
36	0x3eb23b2d	0.34810773
37	0xbebb7455	-0.36612192
38	0x3fef0607	1.8673714
39	0x3edbb588	0.42911935
40	0x3faffcd8	1.3749037
41	0x3ec9815e	0.39356512
42	0xbe5f51e7	-0.21808587
43	0x3e136497	0.1439384
44	0x3f08aaf7	0.5338587
45	0x3eba3492	0.36368233
46	0x3f51493c	0.8175237
47	0x40084843	2.1294105
48	0x3f1e03ad	0.6172436
49	0xbeeb95bc	-0.46012676
50	0xbccf49a6	-0.025303673
51	0x3fcb3b2e	1.5877435
52	0xbec58ac7	-0.3858244
53	0x3ef6c4ba	0.48196965
54	0x4008e78b	2.1391323
55	0x3ea692cf	0.3253388
56	0x3f9fef1c	1.2494845
57	0x3dba2f6d	0.09091077
58	0xbecc8317	-0.39943764
59	0xbf350d6c	-0.70723605
60	0x3ea06d38	0.31333327
61	0x3ef596e8	0.47966695
62	0x3eb0e0c1	0.34546474
63	0x3f48f64e	0.7850083
64	0xbeb1773b	-0.34661278
65	0xbf238cc2	-0.63886654
66	0xbea997d4	-0.33123648
67	0xbed4c329	-0.41555145
68	0x3f34c25e	0.7060908
69	0x3f9d032c	1.2266593
70	0xbeb3fffe	-0.35156244
71	0xbe6de859	-0.23233165
72	0xbede35df	-0.43400475
73	0xbf726090	-0.9467859
74	0x3f036c35	0.51336986
75	0xbecdac1c	-0.40170372
76	0xbf63f60b	-0.89047307
77	0xbf68d3d3	-0.9094822
78	0xbec69e50	-0.38792658
79	0x3eea3ba6	0.45748633
80	0x3ef5d6b6	0.48015374
81	0xbef5a5fe	-0.47978204
82	0x3f300f68	0.6877351
83	0xbf721d5a	-0.94576037
84	0xbf017af5	-0.5057824
85	0x3f53a0eb	0.82667416
86	0x3ec1712f	0.37781665
87	0xbf0d600a	-0.5522467
88	0x3f8bf99d	1.0935551
89	0x3fde6431	1.7374326
90	0x3e6adf15	0.22936662
91	0xbf2634d7	-0.6492438
92	0xbd829042	-0.06375171
93	0xbe26b113	-0.16278486
94	0xbee5beef	-0.44872233
95	0x3f7091d2	0.93972504
96	0x3f297464	0.66193223
97	0x3fa2f90b	1.2732252
98	0x3e7fe517	0.24989735
99	0xbf49cb1c	-0.78825545

weight f4 [100, 60]
0	0x3f1a248c	0.60212016
1	0x3e19234c	0.14954871
2	0xbdbcbbbd	-0.09215496
3	0xbd594d96	-0.053052507
4	0x3e006b2e	0.12540886
5	0xbeb76ca6	-0.3582508
6	0xbea6778f	-0.3251309
7	0x3e6a8284	0.2290135
8	0xbeeab50d	-0.45841256
9	0xbebdb235	-0.37050024
10	0x3ec5a3f1	0.3860164
11	0xbe7475c9	-0.23873056
12	0xbdbc0570	-0.091807246
13	0x3f058e6e	0.52170455
14	0x3e863d8e	0.26218837
15	0x3e9ea4fa	0.30985242
16	0x3eb9156f	0.36149165
17	0xbd9de888	-0.077103674
18	0xbe3fadc6	-0.18718633
19	0x3f928de6	1.1449554
20	0xbeb516b8	-0.35368896
21	0x3e273626	0.1632925
22	0xbf06664f	-0.5249986
23	0xbda8e864	-0.0824745
24	0xbd53d704	-0.051718727
25	0xbeb64d6f	-0.35605952
26	0x3dd8563c	0.10563323
27	0x3e8d9527	0.27652857
28	0x3ebe92ee	0.37221473
29	0xbe705703	-0.23470692
30	0xbd81f177	-0.06344884
31	0x3ed6e288	0.41969705
32	0x3ecdde05	0.4020845
33	0x3f05870d	0.52159196
34	0xbe1abe35	-0.1511162
35	0xbca63044	-0.020286687
36	0x3d532d0a	0.051556624
37	0xbe341b09	-0.17588438
38	0x3ee8a431	0.45437768
39	0x3e884da2	0.2662173
40	0x3e0e30dd	0.13885827
41	0xbeff56cc	-0.49870908
42	0xbe1f3df7	-0.15550981
43	0xbe618293	-0.22022466
44	0xc0234f68	-2.5517216
45	0x3e28c6bf	0.16482066
46	0xbe9f0335	-0.31057134
47	0xbe689de1	-0.22716476
48	0xbdddf25a	-0.108372405
49	0xbf76124b	-0.9612166
50	0xbc72bda1	-0.014815719
51	0x3ebb8d72	0.36631352
52	0x3ef38f06	0.47570056
53	0xbf611ac2	-0.87931454
54	0xbbb22ce7	-0.0054374817
55	0xbedd1e36	-0.43187112
56	0x3f01762c	0.5057094
57	0x3f50657c	0.8140485
58	0x3ec9ae86	0.39390963
59	0xbf058c61	-0.52167326
60	0x3fa0e4c2	1.2569811
61	0xbe8c6b78	-0.27425742
62	0x3f966a0e	1.1751115
63	0x3f82f23e	1.0230176
64	0xbc87a3c0	-0.016557574
65	0x3ec39246	0.38197535
66	0x3f7bc15a	0.98341906
67	0xbdae1a5d	-0.08501122
68	0x3ccfc48f	0.025362281
69	0x3f633d76	0.88765657
70	0xbe25d8c2	-0.16195968
71	0xbd95e4cd	-0.07319031
72	0x3e427dd3	0.1899331
73	0x3ec32e01	0.38121036
74	0x3ec55762	0.3854323
75	0x3e9f1d9a	0.31077272
76	0x3ec21483	0.37906274
77	0xbe114809	-0.14187635
78	0x3e16bc12	0.1472018
79	0x3dd2f922	0.103014246
80	0x3f6a9dcb	0.9164702
81	0x3eb5fc45	0.3554403
82	0xbf2d6892	-0.67737687
83	0x3e322cf6	0.17399964
84	0x3c0a6a06	0.0084481295
85	0xbf1f7b82	-0.6229783
86	0x3ec3a6a0	0.38213062
87	0x3df5437a	0.11975761
88	0xbe82bc0a	-0.25534087
89	0xbed018ff	-0.4064407
90	0xbe0bf081	-0.13665964
91	0xbf2ce5b9	-0.6753803
92	0x3f74c6c5	0.956158
93	0xbec515f5	-0.38493314
94	0xbe9ef0c4	-0.31043065
95	0x3dbe8393	0.093024395
96	0x3e3d9dde	0.18517253
97	0x3eedc0f0	0.46436262
98	0x3f49d5ee	0.78842056
99	0xbdad3e2b	-0.08459123
100	0xbe3590df	-0.17731045
101	0x3b8d6b36	0.004315759
102	0xbdf0dffc	-0.11761472
103	0x3ee9fbea	0.45700008
104	0x3fe3c2d1	1.7793828
105	0x3d4e0384	0.05029632
106	0xbf58218c	-0.8442619
107	0x3e4a656f	0.19765256
108	0xbd43cfb6	-0.04780551
109	0xbf5afd61	-0.85542876
110	0xbf15d8d5	-0.58533984
111	0xbdb2ac5e	-0.08724283
112	0xbed2a450	-0.41140985
113	0xbf15742d	-0.58380395
114	0xbb4891b1	-0.0030604417
115	0xbf488acb	-0.7833678
116	0x3d8cbb0e	0.06871615
117	0xbc9cb7b6	-0.019130569
118	0x3e19f244	0.15033823
119	0xbf45cdba	-0.7726704
120	0x3e029a98	0.12754285
121	0xbde2c6b5	-0.110730566
122	0x3f27fb98	0.65618277
123	0xbdda26b2	-0.10651912
124	0xbf00ef11	-0.50364786
125	0xbf1d8dc0	-0.6154442
126	0xbda8948c	-0.08231458
127	0xbeed3c77	-0.46335194
128	0xbf5a5d22	-0.8529836
129	0xbe9bddf1	-0.30442765
130	0xbf4ad34f	-0.7922868
131	0xbf20213a	-0.625507
132	0x3d27d27f	0.04097223
133	0x3f3f0208	0.74612474
134	0x3f3508a2	0.707163
135	0x3f0d0484	0.55085015
136	0x3f676210	0.90384007
137	0x3e6b54b0	0.22981524
138	0xbd47471c	-0.0486518
139	0x3dc02c09	0.09383399
140	0xc00e2963	-2.221276
141	0x3f0e7802	0.5565187
142	0x3f920bf3	1.1409897
143	0x3f09a99f	0.53774446
144	0xbdeaaae9	-0.1145838
145	0x3e8ed2bd	0.27895156
146	0xbebdebe6	-0.3709404
147	0xbf2a01dc	-0.6640909
148	0x3e8baddd	0.27281085
149	0x3e02b259	0.12763347
150	0xbdb49375	-0.08817188
151	0xbff79e17	-1.934512
152	0xbf3ac650	-0.7295885
153	0x3eafd691	0.3434339
154	0x3e91441b	0.28372273
155	0x3f213a0e	0.6297921
156	0x3da80058	0.082031906
157	0x3f04f9cd	0.51943666
158	0x3f5e6c52	0.86884034
159	0x3f523696	0.8211454
160	0x3f68221d	0.9067705
161	0xbe88bd8e	-0.2670712
162	0x3e301859	0.17196788
163	0xc00e562f	-2.2240102
164	0xbfc32167	-1.5244569
165	0x3f4506d8	0.7696357
166	0x3f26bf2b	0.6513545
167	0xbed06a2d	-0.40706006
168	0xbc66e089	-0.014091619
169	0x3fc75292	1.5572073
170	0xbcd24d8e	-0.025671747
171	0x3fa1832d	1.2618157
172	0xbf7019b1	-0.937892
173	0xbf219b22	-0.6312734
174	0xbe09223b	-0.13391964
175	0xbfa9dde0	-1.3270836
176	0xbf24ac02	-0.64324963
177	0xbbfb3f4a	-0.0076674568
178	0xbf32b0a2	-0.6980077
179	0xbebf3378	-0.37343955
180	0xbf362a18	-0.7115798
181	0xbf248809	-0.64270073
182	0x3daa0882	0.08302404
183	0xbe9e6f5d	-0.30944338
184	0xbf8dc863	-1.1076778
185	0xbeeda852	-0.4641748
186	0x3e9e7147	0.309458
187	0xbf2a6a48	-0.6656842
188	0xbebb347a	-0.36563474
189	0x3ebabe51	0.36473325
190	0xbf0eceb1	-0.55784136
191	0xbdfcd87f	-0.12345981
192	0x3d8d891e	0.06910919
193	0x3e2fdb98	0.17173612
194	0x3c8a79d1	0.01690379
195	0x3e9099f1	0.28242448
196	0x3e97d020	0.29650974
197	0x3dc0b053	0.09408631
198	0x3da6d44f	0.081459634
199	0x3eecea99	0.46272734
200	0x3f323795	0.6961606
201	0x3ed52712	0.4163137
202	0xbf708cb8	-0.9396472
203	0xbf91f99d	-1.1404301
204	0xbe0833b0	-0.13300967
205	0x3f93d2be	1.1548688
206	0x3e268036	0.16259846
207	0xbe138d9b	-0.14409487
208	0x3f01d52e	0.5071591
209	0x3d958246	0.07300238
210	0xb9a512e6	-0.00031485333
211	0x3f43ccd3	0.7648441
212	0xbda46086	-0.08026223
213	0x3f26090a	0.6485754
214	0xbd643b9e	-0.055720918
215	0xbe02dc0b	-0.12779252
216	0xbb361d0a	-0.0027788305
217	0x3f8696e5	1.0514799
218	0xbd6ec861	-0.058296565
219	0xbdb1c605	-0.08680347
220	0xbda51a85	-0.08061699
221	0x3e5b64f7	0.21425234
222	0xbdf163f8	-0.11786646
223	0xbf978f77	-1.1840657
224	0xbf32f9f5	-0.69912654
225	0xbe0f896b	-0.14017265
226	0xbe5167e6	-0.2044979
227	0xbeb2967c	-0.34880435
228	0x3e37dddb	0.17955725
229	0xbe56b080	-0.20965767
230	0xbf0e35fd	-0.5555113
231	0x3e415fab	0.1888415
232	0x3f7d3fa2	0.9892522
233	0x3ea7fcf8	0.32810187
234	0x3dd5fb24	0.10448292
235	0x3ee34e02	0.44395453
236	0xbd972c01	-0.0738144
237	0x3ee6fa75	0.4511296
238	0xbf53b0fe	-0.82691944
239	0x3e1a7dc9	0.15087046
240	0x3fdbcd26	1.7171981
241	0x3f4c6d21	0.7985402
242	0xbe44d347	-0.19221221
243	0x3f427f29	0.7597528
244	0x3f46266c	0.7740238
245	0xbe0b14e3	-0.13582186
246	0x3f10a399	0.5649963
247	0x3f79176d	0.9730137
248	0x3e19df21	0.15026523
249	0x3f4c5fa5	0.7983344
250	0x3f1eda1e	0.6205157
251	0x3dadd348	0.08487564
252	0x3d833ea1	0.0640843
253	0x404346dc	3.0512
254	0x3f20f3f2	0.6287223
255	0xbd931d58	-0.07183331

bias f4 [100]
0	0xbe8056f0	-0.25066328
1	0xbee70795	-0.45122972
2	0xbf399fb6	-0.72509325
3	0xbe66b8bb	-0.22531407
4	0xbdc7bbf9	-0.0975265
5	0x3d51a5c1	0.051183466
6	0x3df5903b	0.119904004
7	0xbe6dd42d	-0.2322547
8	0xbdf9db5b	-0.12200042
9	0xbe99e848	-0.3006003
10	0xbf4e4212	-0.80569565
11	0xbec4e48b	-0.38455614
12	0xbe87f6ce	-0.26555485
13	0xc00b0b5c	-2.1725683
14	0xbe888caf	-0.26669833
15	0xbe030987	-0.12796603
16	0xbd6d5699	-0.057943914
17	0x3e811af6	0.25215882
18	0x3d2bb50d	0.04192071
19	0xbdc8a50b	-0.097971044
20	0xbe0aed30	-0.13567042
21	0xbed6d422	-0.4195872
22	0xbf1b57b0	-0.60680676
23	0xbf04b9e0	-0.5184612
24	0xbf24ab60	-0.64324
25	0x3e62c4a9	0.22145332
26	0xbe808f3a	-0.25109273
27	0x3eca2db0	0.39487982
28	0xbe1bc0fb	-0.15210335
29	0x3f34b7b4	0.7059281
30	0xbef30f65	-0.47472683
31	0xbd535d1b	-0.051602464
32	0x3e97283f	0.29522893
33	0x3e5a0dc9	0.21294321
34	0xbf355491	-0.70832163
35	0xbec89886	-0.39178866
36	0xbddfc43e	-0.10926102
37	0x3d4ffa0c	0.050775573
38	0x3e243da1	0.16039135
39	0xbdab910e	-0.08377276
40	0x3cabf6e9	0.02099176
41	0xbdc65a34	-0.09685174
42	0xbf7e3c8f	-0.99311155
43	0x3e3418bb	0.17587559
44	0xbebd3838	-0.36956954
45	0xbd88949f	-0.06668972
46	0xbf1b3eba	-0.6064259
47	0x3eb9f5d1	0.36320356
48	0xbe6ae1d0	-0.22937703
49	0xbd6efef3	-0.058348607
50	0xbd67adee	-0.056562357
51	0xbf5b6903	-0.8570711
52	0xbee94f50	-0.45568323
53	0xbe5c776b	-0.2152993
54	0x3eae796b	0.3407701
55	0xbe59c258	-0.21265543
56	0xbf624b18	-0.88395834
57	0x3f06f317	0.52714676
58	0xbf53cce1	-0.82734495
59	0x3fad09b7	1.351859
60	0xbd65e338	-0.056124896
61	0x3d535664	0.05159606
62	0x3f39c787	0.7257008
63	0xbd24c18c	-0.040223643
64	0xbcc6933b	-0.024240127
65	0x3fca0eb6	1.578574
66	0xbbf76d59	-0.007550877
67	0xbf3e58cc	-0.74354243
68	0xbeaa768e	-0.33293575
69	0xbd2f938b	-0.042865317
70	0xbcefa8b1	-0.029255243
71	0x3f0801f5	0.53127986
72	0x3e618758	0.22024286
73	0xbf1e5555	-0.61848956
74	0x3e5b210a	0.21399322
75	0xbb876764	-0.004132198
76	0x3ef8b59a	0.4857605
77	0xbe64cfff	-0.22344969
78	0x3dd33776	0.10313313
79	0xbf0bd0c1	-0.5461541
80	0xbebb639f	-0.36599442
81	0x3f324f1f	0.6965198
82	0xbe515ed7	-0.20446335
83	0x3e1924b7	0.14955412
84	0x3de32827	0.11091643
85	0x3db7b224	0.089695245
86	0xbd8cc0fe	-0.06872748
87	0xbe8f52ff	-0.27993008
88	0xbdfb8472	-0.12281121
89	0xbd206f6a	-0.039168753
90	0x3f8d3dbd	1.1034466
91	0x3dc2b92b	0.09507974
92	0xbdf40c16	-0.11916368
93	0xbcaca3f0	-0.021074265
94	0x3e4b5058	0.19854867
95	0x3ea33e58	0.31883502
96	0x3c5f5cd5	0.013632973
97	0x3f13c9ef	0.5773
98	0xbe9236cf	-0.2855744
99	0x3f134d70	0.57540035

weight f4 [1, 100]
0	0x3e821ce0	0.25412655
1	0x3ebf5f5c	0.3737744
2	0xbee750cd	-0.45178834
3	0xbf3d676e	-0.73985946
4	0x3fb4c92c	1.4123893
5	0xbc226ce7	-0.00991366
6	0x3f2d2256	0.6763052
7	0xbe4802ad	-0.1953227
8	0x4011506e	2.270534
9	0xbf03bd0d	-0.51460344
10	0x3fbd5b26	1.4793441
11	0x3f754d9c	0.9582155
12	0x3e7372a7	0.23774205
13	0x40c3e71d	6.121962
14	0x3fcfc8c3	1.6233143
15	0xba07a511	-0.0005174438
16	0x3a4883cd	0.00076490344
17	0x3f3ceda1	0.7380009
18	0x3acfe07a	0.0015859746
19	0x3f0a1486	0.53937566
20	0x3f6a9b1f	0.91642946
21	0x3f164112	0.5869304
22	0x3fc3e13b	1.530311
23	0x3f365403	0.7122194
24	0x3f773233	0.9656097
25	0xbf2e03f3	-0.67974776
26	0x3e917137	0.2840669
27	0x3fd2cad4	1.6468148
28	0x3f272924	0.6529715
29	0x400c790a	2.1948876
30	0x3fad138f	1.3521594
31	0x3ee5c347	0.44875547
32	0x3f0df89a	0.5545746
33	0x3f0bd023	0.54614466
34	0xbf74786e	-0.9549626
35	0x3f42ccd8	0.76093817
36	0xbf4b32ef	-0.79374593
37	0xbf0b1331	-0.5432616
38	0x3f198bd2	0.59978974
39	0xb788b635	-1.629731e-05
40	0x3f09fab3	0.5389816
41	0x3f5dfa9b	0.8671052
42	0x3f2dd71b	0.6790635
43	0x3ecbc2c2	0.39797026
44	0x3e60d728	0.21957076
45	0x3921928b	0.00015408748
46	0x3fa4b24b	1.2866911
47	0x3f27404b	0.6533248
48	0xbf342abc	-0.7037771
49	0x39f29a49	0.00046272788
50	0xbed667cb	-0.41876063
51	0x3ee3dec5	0.44505897
52	0xbfc5a677	-1.5441426
53	0xbf195abd	-0.5990408
54	0xbe8b9dde	-0.2726888
55	0xbf16ca7d	-0.5890272
56	0xbf9d28f5	-1.2278124
57	0x3e99d9e9	0.30049065
58	0xbf6a339a	-0.9148499
59	0x3f9c2140	1.2197647
60	0x3c27e309	0.0102470005
61	0x3a75a45c	0.00093705
62	0x3f7304f5	0.9492944
63	0xbebf2528	-0.37333035
64	0xbe9e369b	-0.30901036
65	0x40229d25	2.5408413
66	0x3eefafa8	0.46813703
67	0x3fdcf2dc	1.7261615
68	0xbf37d666	-0.7181152
69	0xbce3e613	-0.027819669
70	0xbf619f77	-0.8813395
71	0x3fa8eff7	1.3198231
72	0x3ee3ed64	0.44517052
73	0x3ecc7aad	0.39937344
74	0x3f0c2ccf	0.5475587
75	0xb9520faa	-0.00020032996
76	0xbee5ca08	-0.448807
77	0xbefaf812	-0.49017388
78	0x3fb0a258	1.3799543
79	0x3f9e5e1c	1.237247
80	0xbf229574	-0.635093
81	0x3f3c487e	0.73548114
82	0x3fa59669	1.2936527
83	0x3f3e6499	0.7437225
84	0x3f1391eb	0.5764453
85	0x3f9621af	1.172903
86	0x399e992d	0.00030250233
87	0x3f344fd4	0.7043431
88	0x3ed638eb	0.418403
89	0xbd44f360	-0.048083663
90	0x401562c1	2.3341525
91	0x3ea9c185	0.33155456
92	0xbda3e431	-0.080025084
93	0xbe6c5744	-0.23080164
94	0xbec6cd16	-0.38828343
95	0xbefe8073	-0.49707374
96	0x3fb348e3	1.4006618
97	0x3f0ccbe5	0.5499862
98	0xbf237ad2	-0.63859284
99	0x3ee181ed	0.44044438

weight f4 [100, 60]
0	0x3d555a49	0.052088056
1	0x3e718633	0.23586349
2	0xbe1433cf	-0.14472888
3	0x3e916331	0.2839599
4	0x3f03c008	0.5146489
5	0xbe3797ad	-0.17928953
6	0x3ea54eee	0.3228678
7	0x3f2ab2de	0.6667918
8	0xbde3f2fe	-0.111303315
9	0x3d98949e	0.074502215
10	0x3eaa6078	0.33276725
11	0x3dddaea5	0.108243264
12	0xbe44cbd7	-0.19218384
13	0xbc5088c7	-0.012727923
14	0xbe3e5c11	-0.18589808
15	0xbf686ca1	-0.90790755
16	0xbe5de33a	-0.21668711
17	0xbd1114e2	-0.035420306
18	0x3d94e084	0.072693855
19	0xbdd68795	-0.10475079
20	0x3dcbe6c1	0.09956122
21	0x3e329fc6	0.17443761
22	0xbf1ac101	-0.6045075
23	0x3e7ba562	0.24574807
24	0x3e41f494	0.18940955
25	0x3a715f54	0.00092076254
26	0x3ed9a4e6	0.4250862
27	0x3ec08c54	0.37607062
28	0x3f042fe4	0.51635575
29	0xbd996a0a	-0.074909285
30	0xbe399ea0	-0.18126917
31	0xbf089477	-0.5335154
32	0x3d98cc5b	0.07460853
33	0xbf475f73	-0.7788002
34	0x3f22826c	0.6348026
35	0x3d314d40	0.043286562
36	0xbd8ea520	-0.06965089
37	0x3ebde1b2	0.37086254
38	0x3d323446	0.043506883
39	0xbf50dd5f	-0.81587785
40	0x3ea26341	0.3171635
41	0x3da5c115	0.08093468
42	0xbe27a940	-0.16373158
43	0xbe3869a4	-0.18009049
44	0xbcd45ab6	-0.02592216
45	0x3f485e9b	0.78269356
46	0x3eb74dee	0.35801643
47	0x3de0b23f	0.10971498
48	0xbd1d8f3c	-0.038466677
49	0xbd634104	-0.055481926
50	0x3e8b891a	0.27253038
51	0xbf2b9046	-0.6701702
52	0x3c2f8bce	0.010714484
53	0x3e3fe2ca	0.18738857
54	0xbe021449	-0.1270305
55	0x3f2b0150	0.6679888
56	0xbe132f61	-0.14373542
57	0x3f4a4c8a	0.7902304
58	0x3c888f08	0.016669765
59	0x3d158ceb	0.036511343
60	0x3d83d340	0.06436777
61	0xbeca3710	-0.39495134
62	0x3c7d8623	0.015473875
63	0x3e1efbf6	0.15525803
64	0xbeff83ad	-0.49905148
65	0x3e063d38	0.1310929
66	0xbdb734d1	-0.08945621
67	0xbeaa978f	-0.33318755
68	0x3e1ec2bf	0.15503977
69	0xbdc4e9f4	-0.096149355
70	0xbe78f1f4	-0.24311048
71	0x3dc57f12	0.09643377
72	0xbe1c45e3	-0.15261035
73	0xbcae2057	-0.021255655
74	0x3eac7087	0.33679602
75	0x3e8743f0	0.2641902
76	0x3e71f9e0	0.23630476
77	0x3e25995c	0.16171783
78	0xbda6bd0c	-0.081415266
79	0x3f3aeeae	0.73020446
80	0x3dfa28e3	0.1221483
81	0xbd228104	-0.03967382
82	0xbe5d728d	-0.21625729
83	0x3ec2b0f1	0.3802562
84	0xbe18e98d	-0.14932843
85	0x3e24ac32	0.16081312
86	0x3e012d96	0.12615046
87	0x3d2c8760	0.04212129
88	0x3d08a476	0.033359967
89	0x3eafa06f	0.3430209
90	0xbc96d7a1	-0.018413367
91	0x3f06791c	0.5252855
92	0x3efcce63	0.4937621
93	0xbe32c27e	-0.17457005
94	0xbeb60ace	-0.35555118
95	0x3ecb09bb	0.3965586
96	0xbd6f4127	-0.058411743
97	0xbf54d024	-0.831301
98	0x3e3f3783	0.1867352
99	0xbf014f72	-0.5051185
100	0xbec19cfc	-0.37815082
101	0x3eb3d2fd	0.3512191
102	0xbc186daa	-0.00930349
103	0xbeb9bd0d	-0.36277047
104	0x3caf9036	0.02143107
105	0xbe52556d	-0.205404
106	0x3db7e597	0.08979338
107	0x3ea085f3	0.31352195
108	0xbdc6449c	-0.09681055
109	0xbe4dd128	-0.20099318
110	0xbead6505	-0.33866134
111	0x3f85a2d9	1.0440322
112	0x3de8fd78	0.1137647
113	0x3e9ade09	0.30247524
114	0x3e23b8b2	0.15988424
115	0x3dd5c210	0.10437405
116	0x3ebb5885	0.36590973
117	0xbe12b5da	-0.14327183
118	0xbe5753ca	-0.21028057
119	0x3ea5b463	0.32364187
120	0x3ee1e73d	0.44121733
121	0x3e9ee5ee	0.31034797
122	0xba126153	-0.00055839604
123	0x3ed05995	0.40693346
124	0x3f126a79	0.57193714
125	0xbea96854	-0.3308741
126	0x3ee2d59f	0.44303605
127	0x3ee3a285	0.4445993
128	0xbef7d1bf	-0.4840221
129	0x3f02639f	0.5093326
130	0x3f24f538	0.64436674
131	0xbf06502c	-0.5246608
132	0xbe26c985	-0.16287811
133	0xbe8497b7	-0.25897
134	0xbdd857ba	-0.105636075
135	0xbde0779d	-0.109603144
136	0xbe6beb1c	-0.23038906
137	0xbf161f8e	-0.586419
138	0xbd6349b8	-0.055490226
139	0x3e21c9ce	0.15799639
140	0x3cec4535	0.028841594
141	0x3ea1f691	0.31633428
142	0x3d9ffecc	0.078122705
143	0xbf255d02	-0.64595044
144	0xbe3de047	-0.18542586
145	0xbeb84a95	-0.35994402
146	0xbe87702a	-0.26452762
147	0xbe396836	-0.1810616
148	0xbe02c5fc	-0.12770838
149	0xbf2fddb1	-0.6869765
150	0xbd6e5132	-0.058182903
151	0xbe92ce9b	-0.28673252
152	0xbef2c849	-0.4741843
153	0xbeefcf9b	-0.46838078
154	0xbecd535d	-0.40102664
155	0xbf1e1905	-0.61756927
156	0x3d9acc39	0.07558484
157	0x3f069c6a	0.5258242
158	0x3b04ec37	0.0020282397
159	0x3eb61e37	0.35569927
160	0xbe7957bb	-0.24349873
161	0xbefe8e67	-0.4971802
162	0xbda599cf	-0.08085977
163	0x3df1bd58	0.118036926
164	0x3f3e5c91	0.74359995
165	0x3f214eb9	0.63010746
166	0x3f5a5835	0.85290843
167	0xbf1c99f1	-0.61172396
168	0xbbd26f43	-0.006421955
169	0xbec6158d	-0.38688317
170	0x3f1deffb	0.61694306
171	0xbf1fdb3c	-0.624439
172	0x3f835c36	1.0262516
173	0xbf568bb6	-0.8380693
174	0xbc259d8d	-0.010108364
175	0xbe4197e8	-0.18905604
176	0xbeef32d5	-0.4671847
177	0x3dd6e2f4	0.104925066
178	0xbe628c7f	-0.22123908
179	0xbf357432	-0.70880425
180	0xbf0813cf	-0.53155226
181	0x3da9f768	0.08299142
182	0xbeac1035	-0.33606115
183	0xbdf7aa73	-0.120930575
184	0xbe3d63f2	-0.18495157
185	0xbe9d2ec9	-0.30699757
186	0x3cb50564	0.022097297
187	0xbd95f5c5	-0.073222674
188	0xbdf9cb1c	-0.12196943
189	0x3d55b6f2	0.052176423
190	0x3dac9705	0.08427242
191	0xbd3135fa	-0.043264367
192	0xbe0ff955	-0.14059956
193	0xbeaaee07	-0.33384725
194	0xbf78c409	-0.97174126
195	0x3dd4e125	0.103945054
196	0xbf16fb38	-0.5897708
197	0xbdbbd789	-0.091719694
198	0xbd24a21f	-0.040193673
199	0xbf3db658	-0.7410636
200	0xbe4bbe36	-0.19896778
201	0x3e4b9494	0.19880897
202	0xbf2e2fae	-0.68041503
203	0x3dd941f1	0.106082805
204	0xbb774a3d	-0.0037733458
205	0xbf7cfa1e	-0.9881915
206	0xbef19569	-0.47184303
207	0xbddb33bc	-0.10703227
208	0xbe8cdd6b	-0.27512679
209	0x3e75c7c9	0.24001993
210	0x3d926f21	0.071501024
211	0xbf8a33e8	-1.079709
212	0xbd460935	-0.048348624
213	0x3f072e07	0.5280461
214	0xbdfd4bcb	-0.12367972
215	0x3da041d7	0.07825058
216	0xbe07f4f4	-0.13277036
217	0xbebfd5cb	-0.374678
218	0xbfb16a2f	-1.386053
219	0x3e3d946c	0.1851365
220	0x3df976d4	0.12180868
221	0x3e348bf2	0.1763151
222	0x3d03abee	0.032146387
223	0x3fb46a69	1.4094974
224	0xbf8343c0	-1.0255051
225	0xbeb6dc18	-0.35714793
226	0xbe7437d6	-0.23849425
227	0x3e53ab3b	0.20670788
228	0x3d20787e	0.03917741
229	0x3db89afe	0.090139374
230	0xc01b898f	-2.430271
231	0x3f94e3cf	1.1632022
232	0xbd8bc1a3	-0.06824043
233	0x3cf6e232	0.030137155
234	0xbdb01b6a	-0.08598979
235	0xbf8ee44a	-1.1163418
236	0xbef194f5	-0.47183958
237	0xbe095957	-0.13412987
238	0x3d9a8648	0.07545143
239	0x3e5aca1f	0.21366166
240	0x3ee67fd9	0.45019415
241	0x3da9838d	0.082770444
242	0xbe181584	-0.14851958
243	0x3db43451	0.08799041
244	0xbc22cc90	-0.009936467
245	0xbd878df1	-0.0661887
246	0x3d9d16be	0.07670353
247	0x3d59bc3d	0.053158034
248	0xbda3c0ad	-0.07995734
249	0x3e78e68d	0.24306698
250	0x3df8ac97	0.12142294
251	0xbd56fd16	-0.052487455
252	0x3e0f40bb	0.13989536
253	0xbf0a7e6d	-0.5409916
254	0x3df4d80d	0.11955271
255	0xbede6421	-0.43435767

bias f4 [100]
0	0xbde48225	-0.111576356
1	0xbe7e30a1	-0.24823238
2	0x3f2f9857	0.6859183
3	0xbdb103e0	-0.08643317
4	0x3e239fdb	0.15978949
5	0xbd56dfbc	-0.052459463
6	0xbe11cb05	-0.14237602
7	0xbd833315	-0.064062275
8	0xbe5db182	-0.21649745
9	0x3e08177d	0.1329021
10	0xbe2243b5	-0.1584614
11	0x3dc13622	0.09434153
12	0x3c6cc766	0.014451837
13	0xbe2734d2	-0.16328743
14	0xbd48df76	-0.049041234
15	0xbd6404c0	-0.055668592
16	0x3ef202e3	0.47267827
17	0x3ca4e6fa	0.02012967
18	0xbcf5ac52	-0.029989395
19	0x3dfb3e5b	0.12267753
20	0x3ee6f55f	0.45109078
21	0xbe376d93	-0.17912893
22	0xbe3e93da	-0.18611088
23	0x3db5054b	0.088389
24	0x3e7f84c9	0.24952997
25	0xbe1935b7	-0.14961897
26	0xbcf7318a	-0.03017499
27	0xbe559baf	-0.2086017
28	0x3c282746	0.01026327
29	0xbe3a9f07	-0.18224727
30	0x3b96e0df	0.0046044434
31	0xbea9e08d	-0.3317913
32	0xbd9392b8	-0.07205719
33	0xbe52a3ef	-0.20570348
34	0x3d073dfb	0.033018094
35	0x3b894345	0.0041889274
36	0x3c140225	0.009033714
37	0xbf11d1e4	-0.5696089
38	0x3f287cf2	0.6581565
39	0xbe0fc1b3	-0.14038734
40	0x3ca487da	0.02008431
41	0xbe0ba09b	-0.13635485
42	0xbe6097e8	-0.21932948
43	0x3e5b1bcb	0.21397321
44	0xbef049d2	-0.4693132
45	0xbed2bb8c	-0.41158712
46	0xbe0e2b16	-0.13883623
47	0xbe6469a0	-0.22305918
48	0x3ed0fcb6	0.40817803
49	0x3e714846	0.23562726
50	0x3f2da12a	0.6782404
51	0xbe90b57d	-0.28263465
52	0x3e0e4d9f	0.13896798
53	0x3e2ffe19	0.17186774
54	0xbd0ace40	-0.0338881
55	0xbe3651b8	-0.1780461
56	0x3d02b0b4	0.0319068
57	0xbb225e7c	-0.0024775555
58	0x3e00ed8c	0.12590617
59	0x3da5b9e3	0.08092096
60	0x3e9f0384	0.3105737
61	0xbeb38583	-0.350628
62	0x3f16aa43	0.5885355
63	0x3f341071	0.7033759
64	0xbe8f9669	-0.2804444
65	0xbd4342b4	-0.047671035
66	0x3f1dd0e0	0.6164684
67	0x3dcdbc5b	0.100456916
68	0xbd8e8b3e	-0.06960152
69	0x3ebf3788	0.37347054
70	0xbe4c1a93	-0.19932012
71	0xbe17c4ee	-0.14821216
72	0x3f256830	0.646121
73	0x3f032c8a	0.51239836
74	0xbe1b09c4	-0.15140444
75	0x3d9b64ba	0.075875714
76	0x3d3846ce	0.0449894
77	0x3d2c5680	0.04207468
78	0xbe3d781f	-0.18502854
79	0x3f343490	0.70392704
80	0x3f26b19a	0.6511475
81	0x3e4480ca	0.19189754
82	0xbe31e721	-0.17373325
83	0xbe92e79c	-0.2869233
84	0x3e5b82a2	0.21436551
85	0xbda0f329	-0.07858879
86	0xbc7e6c03	-0.015528682
87	0x3d20f92c	0.03930013
88	0xbebd8660	-0.37016582
89	0xbc94a6de	-0.018145975
90	0x3e19f04b	0.1503307
91	0xbe7bf631	-0.24605633
92	0xbe7e3f32	-0.24828795
93	0x3f157c6c	0.5839298
94	0x3baaf9ca	0.0052177655
95	0x3e15dc9e	0.1463494
96	0xbe33566d	-0.17513438
97	0x3e8e4eca	0.27794486
98	0x3e3c8866	0.18411407
99	0xbeee55ba	-0.4654978

weight f4 [1, 100]
0	0xbf25980e	-0.6468514
1	0x3ecba616	0.3977515
2	0xbe95bebd	-0.29247084
3	0x3ee929d0	0.45539713
4	0xbeea8b83	-0.45809564
5	0xbe848b75	-0.25887647
6	0x3e87259f	0.2639589
7	0xbd105c9a	-0.03524456
8	0x3ecc0fed	0.398559
9	0x3fa92d19	1.3216888
10	0x3f862749	1.0480739
11	0xbf131f61	-0.57469755
12	0x3f7cd8b2	0.9876815
13	0x3f0fd471	0.56183535
14	0x3f51e980	0.8199692
15	0x3f9bced7	1.2172498
16	0xbd5190c2	-0.051163442
17	0x3eef792c	0.46772134
18	0x3d2553ca	0.04036311
19	0x3f65093d	0.8946722
20	0xbf1e09eb	-0.61733884
21	0xbfb19eaa	-1.3876545
22	0x3f3a022d	0.7265957
23	0x3f221387	0.63311046
24	0x40168f7a	2.352507
25	0x3df8821b	0.12134191
26	0xbea42661	-0.3206053
27	0x3e320404	0.17384344
28	0xbdbacb05	-0.09120754
29	0x3e597339	0.2123536
30	0x3e9632c8	0.29335618
31	0x3e643add	0.2228808
32	0x401ba6d0	2.4320564
33	0x3f3a3f6b	0.7275302
34	0xbf3a2160	-0.72707176
35	0x3f0bb91c	0.5457933
36	0x3f09dbfc	0.53851295
37	0x3ef96d33	0.48716125
38	0xbeb1d9dc	-0.34736526
39	0x3e8424da	0.25809366
40	0xc0085045	-2.1298993
41	0x3e92a556	0.28641766
42	0x3eeef6ba	0.46672612
43	0x3f450e6b	0.76975125
44	0x3e3d28c1	0.18472578
45	0x3e2ff8d3	0.17184763
46	0x3ef5bdbf	0.47996327
47	0x3f118181	0.5683823
48	0xbb9efcd0	-0.004851915
49	0xbf0379e6	-0.5135788
50	0xbe9c33e5	-0.30508342
51	0x3ed667c9	0.41876057
52	0xbf8936b2	-1.0719817
53	0x3fa3a87b	1.2785791
54	0x4008db9d	2.1384041
55	0x3e46ab6f	0.19401334
56	0x3dc77be2	0.09740426
57	0x3ec69748	0.38787293
58	0xbf1797eb	-0.59216183
59	0x3ec1bd95	0.37839952
60	0x3eb89a42	0.3605519
61	0x3e45a591	0.1930144
62	0xbfc35445	-1.5260092
63	0xbeafe21e	-0.343522
64	0x3dd4b700	0.10386467
65	0x3edda3ea	0.4328912
66	0xbe747959	-0.23874415
67	0xbf1f678b	-0.6226737
68	0x3fd8ac74	1.6927629
69	0xbc068123	-0.0082094995
70	0x3e96113f	0.29310033
71	0x3f655264	0.89578843
72	0xbe1165c9	-0.14198984
73	0xbdb0c5d1	-0.086314805
74	0x3f4bb3c8	0.795712
75	0x3e67bfa0	0.22631693
76	0x3fc8770b	1.5661329
77	0x3f95c196	1.1699703
78	0x3ec817dd	0.39080706
79	0xbeab018a	-0.33399612
80	0xbea0ed78	-0.31431174
81	0x3ee6ab9c	0.45052803
82	0x3f286672	0.6578132
83	0x3ef006bc	0.46880138
84	0xbfb2f521	-1.3981057
85	0x3f1c7a9d	0.61124593
86	0x3f9579f5	1.1677843
87	0x3fc74d0f	1.5570391
88	0x3e20cf9e	0.157042
89	0x3e8faf7b	0.28063568
90	0x3f8bb1d0	1.0913639
91	0x3e4dff37	0.20116888
92	0x3e420725	0.18948038
93	0xbe314129	-0.17310013
94	0x3f544623	0.8291952
95	0x3eb4ca16	0.3531043
96	0x3f290fd0	0.6603975
97	0xbfb9c6ad	-1.4513756
98	0xbf03796b	-0.51357144
99	0x3e18e4ff	0.14931105
