tests/data/test_md_model.model (torch_old, 539846 bytes, 60 tensors)

weight f4 [100, 64]
0.0 0.0 0.0 0.0 0.0 0.0 0.0 0.0
0.0 0.0 0.0 0.0 0.0 0.0 0.0 0.0
0.0 0.0 0.0 0.0 0.0 0.0 0.0 0.0
0.0 0.0 0.0 0.0 0.0 0.0 0.0 0.0
0.0 0.0 0.0 0.0 0.0 0.0 0.0 0.0
0.0 0.0 0.0 0.0 0.0 0.0 0.0 0.0
0.0 0.0 0.0 0.0 0.0 0.0 0.0 0.0
0.0 0.0 0.0 0.0 0.0 0.0 0.0 0.0
1.4547193 -0.6128185 0.32571492 -0.55920714 -0.23895173 0.77998847 0.5023039 -0.21619208
1.8630377 -0.3408801 0.18000859 -1.164512 0.948333 1.6028218 2.5168657 -0.9093939
-0.50146323 0.48195326 1.3846009 -2.1289563 -0.9318556 1.2245715 1.1792705 -0.017154058
1.0615622 1.6902559 1.3126845 1.0672321 -0.40690783 -1.2304689 -1.0258878 -0.25051507
0.19723918 -0.04965767 1.4588417 -0.089740895 -2.0749862 0.04841192 -0.15409324 0.77120054
0.45657855 0.09805986 0.15679242 0.88752615 0.9100695 -0.3156426 -0.73112816 -0.8497161
-0.71375126 -0.7669527 0.5842847 -0.6114319 1.2115633 -0.6038597 0.96494293 1.097564
-1.4157562 1.7429918 -1.9778227 0.21374318 0.17212185 0.49734595 -0.7724212 -0.25564405
-0.01866144 0.07850168 0.8110825 -0.44978443 -0.9068473 0.33489716 -1.4225798 0.19131029
0.9928747 -2.1616194 -0.29445657 -0.16068949 0.26569942 0.79300445 1.2888671 0.5695004
-0.7508702 0.35262138 -1.1140256 1.3979865 0.61194634 -0.7581072 0.4942131 -1.278765
-1.25077 -0.49092552 -0.83671254 0.3500661 1.3395257 -0.27417147 -0.51922536 0.23655204
-1.0389048 -0.856326 -0.8525961 -0.23389697 0.9080301 -1.0006603 -0.12148576 0.81225467
-0.61294514 -2.1210814 0.5835005 1.4406768 -1.1398636 0.24438392 0.24445058 -0.30507404
0.42074266 -0.031201081 -0.5584642 0.57060856 -1.2382969 0.9571412 -0.045339327 -0.081800535
0.121147014 0.2454921 0.9055606 -0.30751598 -1.715775 -0.048299182 -1.3717943 1.219266
0.34995037 0.4278385 -1.1237334 -0.9852909 0.54259247 -0.2358188 0.08026624 1.3830742
-1.2347362 1.3770974 -0.9019796 -0.23289521 1.8258764 0.39796034 -0.6121422 1.7585237
1.2210754 1.957768 -0.38735655 1.1098855 0.104173206 -1.6989263 0.14305016 -0.5933596
0.5255032 0.48832163 -0.27834666 0.48314047 1.7880517 0.89533377 0.15788573 1.1554048
-0.7723482 0.4662063 0.32068434 -1.3145733 0.25657114 -1.9056909 -0.65704465 -1.0657983
0.36471522 0.5703192 1.0773958 -0.5189499 -0.49439156 -0.34115002 0.9508745 -0.80080324
-0.541048 0.2940152 -0.39097857 0.09809189 1.392533 -0.72856694 2.041536 -0.43179742
0.7027257 -0.56633973 -0.1282119 -1.8823628 -0.4410044 0.29467773 -0.29413176 0.22153796
00000000: 0000 0000 0000 0000 0000 0000 0000 0000
00000010: 0000 0000 0000 0000 0000 0000 0000 0000
00000020: 0000 0000 0000 0000 0000 0000 0000 0000
00000030: 0000 0000 0000 0000 0000 0000 0000 0000
00000040: 0000 0000 0000 0000 0000 0000 0000 0000
00000050: 0000 0000 0000 0000 0000 0000 0000 0000
00000060: 0000 0000 0000 0000 0000 0000 0000 0000
00000070: 0000 0000 0000 0000 0000 0000 0000 0000
00000080: 0000 0000 0000 0000 0000 0000 0000 0000
00000090: 0000 0000 0000 0000 0000 0000 0000 0000
000000a0: 0000 0000 0000 0000 0000 0000 0000 0000
000000b0: 0000 0000 0000 0000 0000 0000 0000 0000
000000c0: 0000 0000 0000 0000 0000 0000 0000 0000
000000d0: 0000 0000 0000 0000 0000 0000 0000 0000
000000e0: 0000 0000 0000 0000 0000 0000 0000 0000
000000f0: 0000 0000 0000 0000 0000 0000 0000 0000
00000100: 3e34 ba3f ace1 1cbf 1bc4 a63e 3328 0fbf
00000110: c3af 74be 53ad 473f fd96 003f 7561 5dbe
00000120: 0578 ee3f d687 aebe 2c54 383e bb0e 95bf
00000130: f4c5 723f 4429 cd3f 5414 2140 0ace 68bf
00000140: e55f 00bf 94c2 f63e 9a3a b13f d240 08c0
00000150: 178e 6ebf c2be 9c3f 56f2 963f ab86 8cbc
00000160: 45e1 873f 4e5a d83f 0c06 a83f 109b 883f
00000170: 3956 d0be 0180 9dbf 4b50 83bf 8343 80be
00000180: 11f9 493e d765 4bbd 53bb ba3f 13ca b7bd
00000190: 93cc 04c0 944b 463d 9eca 1dbe 666d 453f
000001a0: aac4 e93e 9cd3 c83d 318e 203e ea34 633f
000001b0: 51fa 683f e89b a1be 372b 3bbf ff86 59bf
000001c0: 67b8 36bf 0357 44bf af93 153f cd86 1cbf
000001d0: 8214 9b3f 8d96 1abf 8006 773f fa7c 8c3f
000001e0: 8037 b5bf 5b1a df3f 4b29 fdbf 7edf 5a3e
000001f0: b640 303e 21a4 fe3e 65bd 45bf c7e3 82be
00000200: e0df 98bc 7dc5 a03d 1aa3 4f3f 254a e6be
00000210: 2527 68bf a477 ab3e 1817 b6bf d8e6 433e
00000220: 092d 7e3f f957 0ac0 03c3 96be c98b 24be
00000230: c109 883e 5702 4b3f 99f9 a43f c7ca 113f
00000240: 0839 40bf ca8a b43e 6498 8ebf 39f1 b23f
00000250: 84a8 1c3f 5013 42bf 8009 fd3e 92ae a3bf
00000260: 3b19 a0bf 975a fbbe cb32 56bf dd3b b33e
00000270: 9475 ab3f 3460 8cbe f4eb 04bf b33a 723e
00000280: d5fa 84bf 2e38 5bbf bd43 5abf b082 6fbe
00000290: a974 683f a315 80bf 87cd f8bd ecef 4f3f
000002a0: f9e9 1cbf ccbf 07c0 4a60 153f 1968 b83f
000002b0: 0de7 91bf c73f 7a3e 4151 7a3e aa32 9cbe
000002c0: 956b d73e 6999 ffbc 83f7 0ebf 6713 123f
000002d0: 8380 9ebf 3507 753f bbb5 39bd 0a87 a7bd
000002e0: ed1b f83d 4862 7b3e d2d2 673f bc72 9dbe
000002f0: 849e dbbf 5dd5 45bd f596 afbf e910 9c3f
00000300: b22c b33e a60d db3e 7fd6 8fbf 063c 7cbf
00000310: 57e7 0a3f 7c7a 71be a062 a43d 9308 b13f
00000320: d60b 9ebf ba44 b03f 23e8 66bf 157c 6ebe
00000330: 51b6 e93f 75c1 cb3e 5ab5 1cbf 4e17 e13f
00000340: 334c 9c3f 2498 fa3f 9953 c6be ba10 8e3f
00000350: c358 d53d 6b76 d9bf be7b 123e 6ae6 17bf
00000360: 6187 063f 4b05 fa3e 7483 8ebe 305e f73e
00000370: e1de e43f 9834 653f ccac 213e 4ee4 933f
00000380: 9db8 45bf 98b2 ee3e bd30 a43e f043 a8bf
00000390: 4b5d 833e aeed f3bf 1434 28bf 146c 88bf
000003a0: f4bb ba3e 7000 123f 1be8 893f e7d9 04bf
000003b0: e420 fdbe 37ab aebe 836c 733f 7101 4dbf
000003c0: 1f82 0abf 2989 963e 582e c8be 67e4 c83d
000003d0: 853e b23f 5d83 3abf 87a8 0240 8d14 ddbe
000003e0: d5e5 333f a4fb 10bf fb49 03be 44f1 f0bf
000003f0: 54cb e1be 00e0 963e 7098 96be d9da 623e

width f4 [25]
0.20833333 0.20833333 0.20833333 0.20833333 0.20833333 0.20833333 0.20833333 0.20833333
0.20833333 0.20833333 0.20833333 0.20833333 0.20833333 0.20833333 0.20833333 0.20833333
0.20833333 0.20833333 0.20833333 0.20833333 0.20833333 0.20833333 0.20833333 0.20833333
0.20833333
00000000: 5555 553e 5555 553e 5555 553e 5555 553e
00000010: 5555 553e 5555 553e 5555 553e 5555 553e
00000020: 5555 553e 5555 553e 5555 553e 5555 553e
00000030: 5555 553e 5555 553e 5555 553e 5555 553e
00000040: 5555 553e 5555 553e 5555 553e 5555 553e
00000050: 5555 553e 5555 553e 5555 553e 5555 553e
00000060: 5555 553e

offsets f4 [25]
0.0 0.20833333 0.41666666 0.625 0.8333333 1.0416666 1.25 1.4583333
1.6666666 1.875 2.0833333 2.2916665 2.5 2.7083333 2.9166665 3.125
3.3333333 3.5416665 3.75 3.9583333 4.1666665 4.375 4.583333 4.7916665
5.0
00000000: 0000 0000 5555 553e 5555 d53e 0000 203f
00000010: 5555 553f 5555 853f 0000 a03f aaaa ba3f
00000020: 5555 d53f 0000 f03f 5555 0540 aaaa 1240
00000030: 0000 2040 5555 2d40 aaaa 3a40 0000 4840
00000040: 5555 5540 aaaa 6240 0000 7040 5555 7d40
00000050: 5555 8540 0000 8c40 aaaa 9240 5555 9940
00000060: 0000 a040

weight f4 [64, 25]
-0.95771307 -0.49501216 -0.47885597 -0.19252823 -0.25771305 0.20631064 -0.21636538 -0.22763047
-0.09329663 0.13366094 0.11997556 -0.18727951 -0.026433768 0.25995788 -0.26505944 -0.0049790866
-0.07956788 0.05686418 -0.26759875 -0.081425816 -0.07074259 -0.12584841 -0.16529255 -0.20073152
0.20255408 -0.6295571 -0.40676916 -0.31001094 -0.044159748 0.27229613 -0.14466548 -0.07943933
-0.30265504 0.17598295 0.20193054 0.17149064 0.028411634 0.15176111 -0.17033207 -0.095508486
-0.2772295 -0.07444335 -0.059091557 -0.21111006 0.016158745 -0.10344871 -0.08129525 0.23951876
0.22305772 -0.17312184 0.13202138 0.012299103 -0.08943839 -0.3338774 -0.22448969 -0.086390585
0.03321342 -0.13808624 0.28590918 0.043482427 -0.0126634035 -0.21147299 -0.17161463 -0.23171528
-0.07984553 -0.24900907 -0.2478174 -0.24844082 -0.18450977 -0.07616104 -0.024892468 -0.15255961
0.07357841 -0.16411407 0.18007417 0.6449518 0.28039673 0.12704572 0.16992897 -0.21648073
-0.040324476 0.13851322 0.012261476 0.0365439 0.105023935 0.20246193 0.048728894 0.16747376
0.12505637 -0.20011927 -0.19731371 -0.13257004 0.11219217 -0.11434237 0.065927 0.04909269
0.009757834 0.04691392 0.10469404 0.10027248 -0.17084306 -0.026062442 -0.15881522 -0.11517198
-0.14684369 0.15067653 -0.04605316 -0.049749482 -0.25830862 0.042260658 -0.13456124 0.105593376
0.133728 0.195455 -0.11634867 0.2006828 -0.05690298 0.1631107 -0.19748314 -0.27784708
-0.22339222 -0.35626027 -0.6036568 -0.17102152 -0.17332213 0.9882116 0.8346363 0.63713145
0.4351548 0.20642932 -0.18646325 0.03966676 0.2924373 -0.1545809 -0.0843481 0.23646137
-0.142781 0.1539469 0.079691455 -0.0013808628 0.09525396 -0.21950732 0.079255804 0.14815256
0.14000416 -0.03938045 -0.2892569 -0.151835 -0.25401688 -0.92343736 0.5175207 0.45678347
0.1694009 -0.103715815 0.12121015 -0.2207081 -0.117481895 0.21924813 0.21274485 -0.21512493
0.035806857 0.038808983 0.10814238 -0.16163346 0.13337767 -0.063291386 -0.045902807 -0.18964697
-0.15215099 -0.107495874 -0.060112778 -0.12871201 0.2515746 -0.19417949 0.09060905 -0.5522414
-0.063010916 -0.2966399 -0.04865641 0.19950789 0.06646751 -0.02746673 -0.021491753 0.14111324
0.0073034302 0.036219094 -0.19361061 0.16815716 0.111686945 -0.06267849 -0.14030358 -0.0045214323
0.11138841 -0.16223793 0.011030045 0.03384093 0.16957091 0.07887687 0.16665843 -0.3978443
-1.0748031 -0.538366 -0.2207992 -0.31286132 0.20099175 0.27157673 -0.23804492 -0.15993856
-0.18081819 0.09128502 -0.12158416 0.057717297 0.18578516 0.06825736 0.06806928 0.17605925
-0.10155565 -0.037712853 -0.14451781 -0.14790761 -0.081225075 -0.15937695 0.06208699 0.058544133
0.32816696 -0.37334117 -0.3129023 -0.1432575 0.14075404 0.24111487 -0.29770485 -0.22753352
-0.25793365 0.26129693 0.149765 0.1878283 0.059817135 0.09502884 0.09261343 -0.12076969
-0.13191855 0.11284836 0.023975503 -0.07389252 0.0029816176 -0.06288025 0.10118491 -0.0194414
-0.32154542 -0.07729238 -0.96621186 -0.37628466 -0.47122192 -0.31288582 0.16867696 0.29074314
00000000: af2c 75bf 3c72 fdbe 9c2c f5be 1f26 45be
00000010: f7f2 83be 1943 533e e38e 5dbe f617 69be
00000020: 4e12 bfbd 6ade 083e bfb5 f53d 33c6 3fbe
00000030: a18b d8bc 3319 853e dfb5 87be 9b27 a3bb
00000040: 7cf4 a2bd 6aea 683d b402 89be 94c2 a6bd
00000050: 7ee1 90bd 68de 00be 7342 29be 908c 4dbe
00000060: 566a 4f3e a72a 21bf 0c44 d0be c1b9 9ebe
00000070: dae0 34bd 666a 8b3e 3023 14be 16b1 a2bd
00000080: 9af5 9abe e034 343e e1c6 4e3e 3e9b 2f3e
00000090: 84bf e83c 4467 1b3e 886b 2ebe f499 c3bd
000000a0: 06f1 8dbe c175 98bd fd09 72bd 3c2d 58be
000000b0: 585f 843c ebdc d3bd 207e a6bd 6844 753e
000000c0: 3e69 643e da46 31be 9d30 073e 2d82 493c
000000d0: 7a2b b7bd fbf1 aabe a0e0 65be 8ced b0bd
000000e0: cc0a 083d 7b66 0dbe b062 923e a11a 323d
000000f0: 2a7a 4fbc 608c 58be bfbb 2fbe c546 6dbe
00000100: 0e86 a3bd 3cfc 7ebe d8c3 7dbe 4567 7ebe
00000110: 21f0 3cbe 52fa 9bbd 4aeb cbbc 9638 1cbe
00000120: 47b0 963d 850d 28be 5d65 383e 901b 253f
00000130: 2990 8f3e 4618 023e dc01 2e3e 20ad 5dbe
00000140: 472b 25bd 69d6 0d3e 5ce4 483c 0eaf 153d
00000150: ca16 d73d 2e52 4f3e f397 473d 3e7e 2b3e
00000160: c70e 003e 11ec 4cbe 9b0c 4abe 71c0 07be
00000170: 02c5 e53d 552c eabd bc04 873d 6b15 493d
00000180: 52df 1f3c d028 403d d469 d63d a85b cd3d
00000190: 7cf1 2ebe e780 d5bc 75a0 22be 49df ebbd
000001a0: 315e 16be f34a 1a3e 3da2 3cbd 1dc6 4bbd
000001b0: 0741 84be 8319 2d3d 6cca 09be 5741 d83d
000001c0: feef 083e 5b25 483e 3648 eebd cb7f 4d3e
000001d0: 1913 69bd 7e06 273e 0539 4abe f941 8ebe
000001e0: eec0 64be bf67 b6be 4189 1abf 4420 2fbe
000001f0: 5b7b 31be 6ffb 7c3f b9aa 553f 0c1b 233f
00000200: 9ccc de3e 3562 533e 39f0 3ebe 9d79 223d
00000210: 57ba 953e 754a 1ebe b2be acbd ee22 723e
00000220: 2f35 12be 42a4 1d3e 4635 a33d 11fe b4ba
00000230: 8214 c33d 87c6 60be de50 a23d 4eb5 173e
00000240: 405d 0f3e 654d 21bd 7b19 94be a27a 1bbe
00000250: 800e 82be 6466 6cbf 3d7c 043f 86df e93e
00000260: 6e77 2d3e f568 d4bd 073d f83d 4e01 62be
00000270: 599a f0bd 9582 603e c9d9 593e b649 5cbe
00000280: 36aa 123d 2bf6 1e3d c179 dd3d 3e83 25be
00000290: 2894 083e ea9e 81bd 9504 3cbd d132 42be
000002a0: 78cd 1bbe cc26 dcbd d138 76bd 15cd 03be
000002b0: 63ce 803e fdd6 46be 3d91 b93d b15f 0dbf
000002c0: de0b 81bd 2fe1 97be f24b 47bd cc4b 4c3e
000002d0: 1e20 883d e801 e1bc 790f b0bc fd7f 103e
000002e0: 9d51 ef3b 795a 143d dc41 46be 6431 2c3e
000002f0: 20bc e43d 955d 80bd beab 0fbe 8628 94bb
00000300: 9b1f e43d b321 26be 5db7 343c c99c 0a3d
00000310: ffa3 2d3e 328a a13d 82a8 2a3e 40b2 cbbe
00000320: 2693 89bf 5bd2 09bf 2f19 62be 5c2f a0be
00000330: c8d0 4d3e 1b0c 8b3e 0cc2 73be efc6 23be
00000340: 6728 39be a4f3 ba3d 1e01 f9bd f968 6c3d
00000350: 773e 3e3e 84ca 8b3d e867 8b3d e048 343e
00000360: 69fc cfbd cb78 1abd 7afc 13be 1875 17be
00000370: 5559 a6bd b633 23be ed4e 7e3d f9cb 6f3d
00000380: 8005 a83e 9326 bfbe bb34 a0be 18b2 12be
00000390: d421 103e d1e6 763e c56c 98be 8cfe 68be
000003a0: e10f 84be b6c8 853e ff5b 193e 1056 403e
000003b0: d002 753d 7b9e c23d 1cac bd3d 1956 f7bd
000003c0: a815 07be 0a1d e73d 4668 c43c f654 97bd
000003d0: 3e67 433b 5cc7 80bd 093a cf3d 9243 9fbc
000003e0: 9aa1 a4be 784b 9ebd a959 77bf 62a8 c0be
000003f0: 0044 f1be 9232 a0be a7b9 2c3e 49dc 943e

bias f4 [64]
-0.0065393243 -0.011097882 0.008598995 -0.08977482 -0.03165932 -0.0008481388 0.012955369 -0.018764298
-0.015728319 -0.026311733 -0.017978588 -0.02187895 0.03556315 -0.019817961 -0.029564604 0.011792252
-0.01281942 -0.0060942345 -0.0019580468 0.004251029 -0.028135559 0.005231202 0.0036276402 0.011561026
0.012217282 -0.010057405 -0.019107113 -0.022904536 -0.036128152 -0.0128635615 -0.0034030546 0.002200772
0.03904826 -0.008740342 -0.005351567 -0.0073865075 0.032222733 -0.05290856 0.01419897 0.010715627
0.0017065414 -0.015477103 -0.042278692 0.013669966 0.02134244 0.010309904 -0.0096253725 -0.0013012143
-0.033160564 -0.029504625 -0.003202621 -0.02621484 0.029334819 -0.05614681 0.006834559 -0.003092531
-0.004940191 -0.011150814 0.0043461034 -0.016153894 0.008406641 0.019555507 -0.035469506 -0.018038372
00000000: d447 d6bb e4d3 35bc cde2 0c3c dcdb b7bd
00000010: 34ad 01bd a255 5eba c242 543c 96b7 99bc
00000020: add8 80bc b48b d7bc d547 93bc 7c3b b3bc
00000030: aaaa 113d 4759 a2bc 7831 f2bc 4a34 413c
00000040: 8b08 52bc 25b2 c7bb 9352 00bb 374c 8b3b
00000050: 8b7c e6bc 816a ab3b b4bd 6d3b 756a 3d3c
00000060: ff2a 483c d0c7 24bc 8586 9cbc 4ba2 bbbc
00000070: 1dfb 13bd b0c1 52bc c805 5fbb d43a 103b
00000080: 11f1 1f3d a733 0fbc 335c afbb 840a f2bb
00000090: fcfb 033d a5b6 58bd cca2 683c 9990 2f3c
000000a0: 07ae df3a ad93 7dbc 6c2c 2dbd fef7 5f3c
000000b0: 57d6 ae3c dfea 283c bdb3 1dbc 828d aaba
000000c0: 5fd3 07bd afb3 f1bc 10e3 51bb 81c0 d6bc
000000d0: 934f f03c 33fa 65bd 70f4 df3b 10ac 4abb
000000e0: 53e1 a1bb e7b1 36bc c269 8e3b 2c55 84bc
000000f0: 02bc 093c df32 a03c 7948 11bd 35c5 93bc

weight f4 [64, 64]
0.13136211 -0.08193879 -0.1079392 0.14157337 0.049803685 0.1119257 0.034954306 -0.1323893
0.008001496 0.18656455 0.14294466 -0.11056871 0.17028329 0.13135545 -0.20729972 0.14713115
0.06435437 0.079576544 0.1923887 0.25564727 -0.17174336 -0.23571709 0.05349691 0.08524021
-0.07500518 -0.07196757 0.03630211 0.17140827 -0.021051003 -0.010694061 -0.30879062 -0.072456315
0.13174254 -0.061720993 -0.2764053 -0.10957514 0.18867645 0.027084444 0.018598864 -0.011985148
-0.14961323 0.078905255 -0.14798573 -0.22674528 0.16269687 -0.0019769676 0.11472128 0.20985846
0.013975905 -0.028159246 -0.07882227 -0.2030624 -0.096577466 0.03377426 0.100883074 -0.054807752
0.1259721 0.17356315 0.17332384 -0.18220004 -0.14202389 -0.025788352 -0.023613645 -0.1266236
-0.19785647 -0.0106210075 -0.11487006 -0.1474423 0.16329718 -0.079686224 0.06784193 -0.023551768
-0.05477247 0.19088648 -0.16241594 -0.15629858 0.1567421 -0.16075005 0.21714889 -0.061142612
0.20530728 -0.06589631 -0.15999453 -0.15363914 -0.15275268 -0.10084199 0.006213755 0.21669294
0.057737436 0.11466586 0.031314574 0.21670873 -0.103606656 0.10153521 0.03662829 0.1964609
-0.2301575 -0.2390852 -0.021771701 0.04345806 -0.15199256 -0.1269922 -0.06097041 -0.1505366
0.1400486 -0.00028451526 0.118423514 0.109385155 0.059442215 -0.16259328 0.04208151 0.08016986
0.15198824 0.07731753 -0.15117857 0.025184376 0.04663436 0.06769694 -0.19587195 0.22749236
0.13788475 -0.13848244 -0.034850344 0.0097909765 0.110154115 -0.017367953 -0.21035665 -0.014904353
-0.13848896 0.025973424 -0.018825216 0.085813306 0.037972957 0.060182866 0.13237683 0.10937207
-0.06310635 0.001134173 -0.091548316 -0.108704135 0.16533893 0.0902007 0.15195444 -0.0325311
0.051398538 -0.027615527 -0.12679537 0.19631656 0.056866992 0.009159737 0.11593669 -0.09378323
-0.011765443 0.10379217 0.1316368 0.14035645 -0.10049566 0.10838102 0.061368465 0.25641888
-0.08546308 -0.1274573 -0.1808768 0.30910996 0.068214275 -0.11880507 -0.09724002 -0.0058062933
0.08051032 -0.036707107 0.089900464 -0.09010285 -0.15029542 -0.098176025 0.033008862 -0.047575317
0.21752037 0.14856134 0.19502366 -0.055193383 0.16478449 -0.05849703 -0.062394332 0.18385915
-0.1774785 -0.085817754 0.009460417 0.074979536 -0.12203616 0.09169964 -0.038612895 -0.031843975
0.19453637 0.06580583 0.25974226 0.16114554 -0.26780918 -0.22361243 -0.050590064 -0.13897686
0.07760724 0.012959327 -0.089537695 0.10824684 0.22109081 0.03517122 -0.11417556 -0.120847024
-0.08727388 -0.15860254 0.21654874 -0.12637904 -0.23263644 0.19541396 0.00023491516 -0.22897147
-0.14103267 -0.05262169 -0.20938201 -0.08371754 0.1791768 0.17460261 -0.10620632 -0.015647285
0.22889662 0.041923545 -0.08008844 0.010990464 -0.18780673 -0.17372043 0.11843743 -0.02756117
-0.20728938 0.16007173 0.30574676 0.16629885 0.10539883 -0.017197032 -0.069260426 0.16386393
-0.01847351 0.005062548 0.015284016 -0.059626836 0.19775644 -0.12695701 0.036172036 -0.069300875
-0.13669936 0.31491405 -0.18122481 0.12211732 0.13921523 0.031727646 -0.10559537 0.09375958
00000000: ca83 063e 86cf a7bd 3a0f ddbd 9cf8 103e
00000010: f3fe 4b3d 4d39 e53d 3f2c 0f3d 1091 07be
00000020: b518 033c c70a 3f3e 1660 123e d971 e2bd
00000030: be5e 2e3e 0b82 063e 6146 54be 8ca9 163e
00000040: 39cc 833d 07f9 a23d 8b01 453e 33e4 823e
00000050: 7edd 2fbe d25f 71be 931f 5b3d 6b92 ae3d
00000060: 519c 99bd bc63 93bd 85b1 143d a685 2f3e
00000070: 2773 acbc 2536 2fbc ce19 9ebe fa63 94bd
00000080: 84e7 063e 27cf 7cbd ff84 8dbe ee68 e0bd
00000090: 6634 413e 32e0 dd3c a55c 983c 5b5d 44bc
000000a0: 3634 19be 1499 a13d 9289 17be ea2f 68be
000000b0: 029a 263e 0390 01bb fef2 ea3d 23e5 563e
000000c0: 32fb 643c 38ae e6bc 926d a1bd 97ef 4fbe
000000d0: 68ca c5bd e156 0a3d c99b ce3d 187e 60bd
000000e0: d5fe 003e 8aba 313e ce7b 313e a692 3abe
000000f0: b66e 11be 1842 d3bc 6771 c1bc 9ea9 01be
00000100: e39a 4abe bc03 2ebc fe40 ebbd 1dfb 16be
00000110: 6037 273e 8832 a3bd b6f0 8a3d a3ef c0bc
00000120: 1959 60bd bf77 433e 5d50 26be bc0c 20be
00000130: 0081 203e a99b 24be 475c 5e3e ad70 7abd
00000140: 123c 523e a5f4 86bd 9bd5 23be 9453 1dbe
00000150: 336b 1cbe 3f86 cebd c19c cb3b c1e4 5d3e
00000160: 177e 6c3d efd5 ea3d b643 003d e5e8 5d3e
00000170: ba2f d4bd b1f1 cf3d 8c07 163d 0c2d 493e
00000180: 68ae 6bbe c0d2 74be 915a b2bc 1401 323d
00000190: f0a3 1bbe 3e0a 02be 1cbc 79bd 4426 1abe
000001a0: e668 0f3e fe2a 95b9 0788 f23d 5305 e03d
000001b0: ae79 733d da7e 26be a95d 2c3d 1830 a43d
000001c0: cea2 1b3e a758 9e3d 8ece 1abe 774f ce3c
000001d0: ac03 3f3d b1a4 8a3d a892 48be c2f3 683e
000001e0: a931 0d3e 57ce 0dbe 3cbf 0ebd 556a 203c
000001f0: 7b98 e13d 3d47 8ebc bc67 57be 6331 74bc
00000200: 0dd0 0dbe 38c6 d43c 5737 9abc e3be af3d
00000210: 8889 1b3d 4f82 763d cb8d 073e 77fe df3d
00000220: e73d 81bd 88a8 943a af7d bbbd 46a0 debd
00000230: 9c4e 293e 25bb b83d f299 1b3e 553f 05bd
00000240: 4687 523d f539 e2bc a5d6 01be 3507 493e
00000250: 5ded 683d b912 163c 3770 ed3d 6c11 c0bd
00000260: d8c3 40bc fd90 d43d cccb 063e 9ab9 0f3e
00000270: abd0 cdbd def6 dd3d 805d 7b3d 5649 833e
00000280: 4407 afbd 2b84 02be c537 39be a943 9e3e
00000290: edb3 8b3d 1350 f3bd c725 c7bd b842 bebb
000002a0: 98e2 a43d 315a 16bd bc1d b83d d887 b8bd
000002b0: 0be7 19be 8310 c9bd 4d34 073d 56de 42bd
000002c0: a9bd 5e3e 7720 183e 48b4 473e 7512 62bd
000002d0: 44bd 283e 959a 6fbd 3391 7fbd 9345 3c3e
000002e0: edbc 35be 38c1 afbd ddff 1a3c df8e 993d
000002f0: 18ee f9bd 05cd bb3d 8e28 1ebd d46e 02bd
00000300: 8b34 473e 35c5 863d f0fc 843e 5603 253e
00000310: 491e 89be a8fa 64be 8737 4fbd f34f 0ebe
00000320: 8bf0 9e3d 5b53 543c 8a5f b7bd 85b0 dd3d
00000330: a165 623e b20f 103d e0d4 e9bd a57e f7bd
00000340: a6bc b2bd b468 22be f4be 5d3e 8269 01be
00000350: 3f38 6ebe 991a 483e 8f53 7639 7f77 6abe
00000360: de6a 10be d789 57bd 3d68 56be 1a74 abbd
00000370: 207a 373e 07cb 323e b382 d9bd bc2e 80bc
00000380: e063 6a3e 06b8 2b3d 6805 a4bd 5911 343c
00000390: 6850 40be c5e3 31be 538f f23d f6c7 e1bc
000003a0: ab43 54be d8e9 233e d78a 9c3e 3f4a 2a3e
000003b0: 57db d73d cae0 8cbc 69d8 8dbd f2cb 273e
000003c0: c255 97bc bbe3 a53b cf69 7a3c 453b 74bd
000003d0: aa80 4a3e 0501 02be 2129 143d 9eed 8dbd
000003e0: ebfa 0bbe 6a3c a13e ff92 39be a518 fa3d
000003f0: 708e 0e3e d9f4 013d 6342 d8bd 0605 c03d

bias f4 [64]
0.0035867018 0.013171746 0.007717685 0.014378782 0.042850483 0.044991225 0.0096305525 -0.004153834
-0.014567602 0.005402723 0.002199032 0.03018465 -0.057417143 -0.04363607 -0.009081516 -0.004083992
0.0037701896 -0.020169912 0.000628798 -0.025492925 0.023084186 0.029756727 -0.022541817 0.012451973
-0.043666832 0.0016351513 0.007523448 0.021788668 -0.050479244 -0.015000241 -0.00627251 -0.00957337
0.008680461 0.00487125 0.009914245 0.011479642 -0.024352148 0.0061286897 0.0124905575 0.07506258
0.012851056 -0.0047811856 -0.016325109 0.0034788088 0.009621134 0.037087593 -0.024346596 -0.042772304
0.036455758 0.057717647 -0.033894286 0.010792879 0.014514433 -0.008984352 0.037745215 -0.016369145
-0.003802164 0.010715438 -0.018073449 0.0006389282 -0.008014788 0.018420057 -0.0022441787 0.008268991
00000000: df0e 6b3b 4fce 573c a2e4 fc3b fc94 6b3c
00000010: fd83 2f3d b848 383d 77c9 1d3c e31c 88bb
00000020: f4ac 6ebc 5309 b13b a31d 103b cd45 f73c
00000030: 3d2e 6bbd bcbb 32bd a4ca 14bc 02d3 85bb
00000040: 4915 773b 5f3b a5bc ebd5 243a 8ad6 d0bc
00000050: 0c1b bd3c 61c4 f33c 9ea9 b8bc 5c03 4c3c
00000060: fedb 32bd 9352 d63a 4287 f63b 267e b23c
00000070: 53c3 4ebd 92c3 75bc a189 cdbb a0d9 1cbc
00000080: 7e38 0e3c 029f 9f3b 5c6f 223c 1c15 3c3c
00000090: 287e c7bc 2dd3 c83b 32a5 4c3c 69ba 993d
000000a0: 3c8d 523c 7eab 9cbb 3cbc 85bc bafc 633b
000000b0: f6a1 1d3c 29e9 173d 8372 c7bc 0332 2fbd
000000c0: a252 153d 5769 6c3d bcd4 0abd 9ed4 303c
000000d0: f2cd 6d3c 1b33 13bc ba9a 1a3d 9618 86bc
000000e0: ba2d 79bb ce8f 2f3c c50e 94bc bf7d 273a
000000f0: 7550 03bc a9e5 963c 1213 13bb a97a 073c

weight f4 [64, 64]
-0.002157686 -0.10386409 0.14236248 -0.12862518 -0.11521189 -0.055710636 -0.13794637 0.15040259
0.033562906 -0.14261849 -0.119722225 0.14927813 0.08572025 0.114357315 0.15135457 0.093176484
0.21292809 -0.18772909 0.15459444 -0.0013347607 0.08054349 0.1027691 0.13765411 0.14609797
-0.138177 0.13888803 0.020881822 0.032885045 -0.175712 -0.15847446 -0.0067915386 -0.10667542
-0.015309383 0.09909265 0.19478051 -0.15440388 0.14507872 -0.06217925 0.06101919 -0.08011834
-0.00068692287 0.14452842 -0.093854144 0.07891071 0.12431262 0.070498474 -0.10042953 0.0619577
0.119318634 0.065583535 -0.117539756 0.04953772 -0.111162424 0.123801515 0.19154719 -0.2028075
-0.14629161 0.1500197 0.04429713 -0.14419179 0.070419036 0.07921806 -0.17205694 0.15897
0.14738953 -0.19808336 -0.12485154 -0.038472824 0.07298938 0.17112237 -0.043483227 -0.07191772
-0.039754383 0.22695534 0.08081682 0.15237118 0.06700053 0.128201 0.03890518 0.105964355
-0.040730543 -0.085964516 -0.12790653 -0.14635207 0.19643961 0.03203616 0.068513006 0.038852323
0.067255326 0.04219498 0.13962784 0.105361894 -0.1065305 0.04721743 -0.03828944 -0.16778846
-0.032346334 -0.009431891 0.14145342 0.0900513 0.029807251 -0.007491366 0.14695148 0.0555399
-0.07668626 -0.0068829204 0.07579929 0.13951616 0.007413133 0.013897808 0.19919361 -0.041730314
-0.16465156 -0.1767881 0.10391258 -0.069563046 0.19358517 0.053156883 -0.09519199 -0.036976352
-0.15467289 0.14463133 0.1376794 0.19083565 0.13996343 0.117592216 0.11464356 -0.15369575
0.20983677 -0.15358871 0.02130222 0.1647788 -0.031150622 -0.13783506 0.016217798 0.19417566
0.15485065 0.15633875 -0.021948418 -0.08384141 -0.12701526 -0.041990034 0.09944088 -0.20923808
-0.13906433 0.007021668 0.104518406 -0.096833944 0.10234982 0.00388844 -0.07660713 0.22565874
-0.17503534 0.21195598 0.014077422 -0.20968108 0.08401603 -0.08681814 0.17983669 -0.2029183
0.08305343 -0.14533083 -0.11438118 -0.14730044 -0.20919141 0.2118389 -0.23058158 -0.178701
-0.1468414 0.02942247 0.06797611 -0.03418124 -0.041080166 0.12092061 -0.05007773 -0.12005782
0.17901415 -0.019290144 0.018234903 0.024381973 -0.037675496 -0.036526278 -0.12290461 0.14418554
0.22023404 0.077936575 0.13626927 0.04105985 -0.09089267 0.060381465 0.10097134 0.12901536
-0.0668662 -0.030235283 0.10112263 -0.030758543 -0.18383634 0.16434819 -0.10251207 -0.03653819
0.023033567 -0.09268897 0.07109111 -0.16241837 0.13278267 -0.11434533 -0.019486379 0.1364105
0.22214547 0.061532825 -0.23342055 0.14117083 -0.2962638 -0.14251895 -0.105964474 -0.17097837
0.14946067 0.114405 -0.16195057 0.12616341 -0.007812978 -0.1125677 -0.078688376 -0.027237931
0.11550536 -0.081734315 -0.04671283 -0.20380414 0.11044831 -0.19549341 0.21272942 -0.029398087
-0.014528712 0.12928143 0.1663409 -0.030147403 -0.036199804 -0.01714213 -0.19622914 0.060829952
0.028282488 0.040470462 -0.07420481 -0.083744355 0.1664267 0.2138256 -0.075405315 0.10542171
0.22670525 0.20701826 -0.028076567 0.19431086 0.22357112 -0.23278636 -0.1801877 0.026437921
00000000: f767 0dbb b2b6 d4bd 78c7 113e 52b6 03be
00000010: 36f4 ebbd d630 64bd d041 0dbe 2303 1a3e
00000020: 4279 093d 950a 12be ed30 f5bd 5edc 183e
00000030: 198e af3d 2b34 ea3d b1fc 1a3e 50d3 be3d
00000040: d209 5a3e 0e3c 40be 014e 1e3e 23f3 aeba
00000050: fcf3 a43d 9b78 d23d 33f5 0c3e b59a 153e
00000060: 467e 0dbe aa38 0e3e 5b10 ab3c 78b2 063d
00000070: d9ed 33be 2147 22be 8e8b debb a578 dabd
00000080: 35d4 7abc 16f1 ca3d 8b74 473e 0d1c 1ebe
00000090: 848f 143e abaf 7ebd 42ef 793d 1615 a4bd
000000a0: 9d12 34ba 42ff 133e 9a36 c0bd f09b a13d
000000b0: 9d97 fe3d 8161 903d ffad cdbd 5bc7 7d3d
000000c0: 545d f43d a950 863d afb8 f0bd 10e8 4a3d
000000d0: 20a9 e3bd a68b fd3d f224 443e c5ac 4fbe
000000e0: 78cd 15be c49e 193e e870 353d 03a7 13be
000000f0: db37 903d 143d a23d b22f 30be 08c9 223e
00000100: 48ed 163e 5dd6 4abe 2ab2 ffbd ae95 1dbd
00000110: 757b 953d b43a 2f3e 781b 32bd 9949 93bd
00000120: 7ed5 22bd fb66 683e 4a83 a53d 3107 1c3e
00000130: 9337 893d 1f47 033e 0a5b 1f3d d703 d93d
00000140: 12d5 26bd 2a0e b0bd eef9 02be 51dd 15be
00000150: 7727 493e 5938 033d 8c50 8c3d 9d23 1f3d
00000160: 29bd 893d a5d4 2c3d 9afa 0e3e fac7 d73d
00000170: aa2c dabd 1067 413d 63d5 1cbd bdd0 2bbe
00000180: 977d 04bd 3888 1abc 2ad9 103e d16c b83d
00000190: 562e f43c 227a f5bb 737a 163e ce7d 633d
000001a0: b00d 9dbd 1f8a e1bb a83c 9b3d 53dd 0e3e
000001b0: dee9 f23b a2b3 633c 69f9 4b3e 68ed 2abd
000001c0: 6b9a 28be f107 35be 1ed0 d43d 1277 8ebd
000001d0: 313b 463e 08bb 593d 05f4 c2bd 8474 17bd
000001e0: 9262 1ebe 3c1a 143e d4fb 0c3e 6c6a 433e
000001f0: 9352 0f3e 30d4 f03d 3eca ea3d 6b62 1dbe
00000200: 73df 563e 5c46 1dbe fe81 ae3c c6bb 283e
00000210: 972f ffbc a224 0dbe 30db 843c fcd5 463e
00000220: 2b91 1e3e 4417 203e 2bcd b3bc 0cb5 abbd
00000230: 4a10 02be befd 2bbd a9a7 cb3d 8242 56be
00000240: e166 0ebe 0516 e63b bf0d d63d e050 c6bd
00000250: c89c d13d 33d5 7e3b 33e4 9cbd 1613 673e
00000260: 773c 33be fd0a 593e fda4 663c a3b6 56be
00000270: 9910 ac3d b5cd b1bd 1c27 383e d1c9 4fbe
00000280: eb17 aa3d 9bd1 14be ae40 eabd edd5 16be
00000290: 4636 56be 4cec 583e 941d 6cbe 65fd 36be
000002a0: 985d 16be 6407 f13c 0f37 8b3d a101 0cbd
000002b0: ad43 28bd 3aa5 f73d 4e1e 4dbd e0e0 f5bd
000002c0: 7c4f 373e 5d06 9ebc 5d61 953c b4bc c73c
000002d0: 9f51 1abd 949c 15bd 6ab5 fbbd 60a5 133e
000002e0: 0885 613e 369d 9f3d 2c8a 0b3e 602e 283d
000002f0: f025 babd 8e52 773d 10ca ce3d 9a1c 043e
00000300: 25f1 88bd fcaf f7bc 6219 cf3d 57f9 fbbc
00000310: 983f 3cbe e44a 283e d9f1 d1bd 12a9 15bd
00000320: e4b0 bc3c b7d3 bdbd 3798 913d 0051 26be
00000330: 2ef8 073e e22d eabd e6a1 9fbc 32af 0b3e
00000340: 1a7a 633e d809 7c3d cc05 6fbe 168f 103e
00000350: e4af 97be 7df0 11be e703 d9bd f414 2fbe
00000360: 380c 193e 2b4d ea3d 5fd6 25be fb30 013e
00000370: 0102 00bc e589 e6bd 5f27 a1bd 1522 dfbc
00000380: 138e ec3d 5264 a7bd f455 3fbd 08b2 50be
00000390: b932 e23d 6d2f 48be bed5 593e 42d4 f0bc
000003a0: d609 6ebc 5a62 043e 4555 2a3e b0f7 f6bc
000003b0: 3f46 14bd a76d 8cbc 4bf0 48be d428 793d
000003c0: adb0 e73c 5bc4 253d b1f8 97bd 2982 abbd
000003d0: c36b 2a3e 19f5 5a3e 1a6e 9abd 56e7 d73d
000003e0: 6c25 683e 98fc 533e d400 e6bc 6df9 463e
000003f0: d4ef 643e 8c5f 6ebe 2083 38be 5794 d83c

weight f4 [64, 64]
-0.03577727 0.08215933 0.16575249 -0.034770522 0.21866913 0.06997762 -0.083856486 -0.011110641
-0.17199147 0.091002256 -0.14197075 0.18654992 0.05488163 -0.07865627 0.1935403 0.04224889
0.23051916 -0.090694 0.09919921 0.10336183 0.025494812 -0.12525885 -0.20130038 0.017715313
-0.23640995 -0.1825089 0.03645614 0.17262886 -0.09432411 0.14097399 -0.06955522 0.10487691
-0.17662106 -0.18223608 -0.23362423 0.034714896 0.098280355 0.036004554 0.00845696 -0.14076452
-0.09256657 0.19623026 -0.015908495 -0.18060198 -0.10063196 0.12676159 0.18156786 0.017715199
0.101682134 0.24302992 -0.015742138 -0.011065583 0.15156162 0.000985722 0.029546745 -0.16797973
0.05426655 0.14875351 0.105376676 -0.021124968 0.12707521 0.13640583 0.24440275 -0.015097069
0.030087356 0.036008015 -0.062275212 -0.0633599 0.12392479 -0.023255672 0.038482573 0.040305253
0.040093698 0.18377048 -0.15305817 0.035498094 0.018897284 0.18358536 0.17876229 0.04852606
-0.06893197 0.03368864 -0.10687746 0.13397512 -0.15518422 0.06327873 -0.15819596 -0.19535461
-0.20317006 0.08567974 -0.10838792 0.08705992 0.07778087 -0.006843714 -0.02571793 -0.06827503
0.059882168 -0.12626414 -0.110077 -0.11939973 -0.17160067 -0.045968693 -0.19160426 -0.0841117
-0.142253 -0.11458329 0.13088308 0.07810425 0.17181866 0.09703664 0.10521694 0.13639306
0.043632705 -0.06722759 0.059111997 0.19053008 -0.037256397 0.09616111 0.15738532 -0.13805538
-0.17536822 -0.13015437 -0.06904245 -0.1979748 0.050082076 0.12366259 0.017477905 -0.15984659
-0.1722534 0.058648113 0.10317417 0.1589945 0.0070081023 -0.06536816 0.12739557 0.036469754
0.09345811 -0.15082778 -0.02375822 0.13704626 0.13597724 -0.09221579 -0.0057133036 0.07293322
0.02438538 -0.022858916 0.061418694 -0.23711771 -0.019603958 -0.08707011 -0.010502689 -0.14057624
-0.086932644 0.09379649 0.08920491 0.05858227 -0.05071389 0.043637253 0.11905621 0.21702804
-0.21263076 0.013000235 0.06289257 -0.20824356 -0.12192852 0.049281746 0.26790747 -0.12281951
0.16970666 -0.1685811 -0.045197114 0.004257551 -0.24201499 -0.0932572 0.12551792 0.22893512
0.026823677 0.22462279 -0.045022354 -0.039420713 0.019808676 0.10972233 0.15463579 -0.088070385
0.117630735 0.02332365 0.11858104 -0.009815278 0.17063402 -0.069538034 -0.008406666 -0.13330339
-0.13701941 0.027161043 0.18652649 0.18996646 -0.08188573 -0.1147273 0.16861372 0.037812464
-0.14889345 -0.2067588 -0.14574365 -0.09647497 0.075464554 -0.060426667 -0.09332319 0.06705952
-0.3402102 0.0261482 0.20730184 0.116299674 -0.04366244 -0.111454055 -0.013761524 -0.08644926
0.0669235 -0.174977 -0.12783383 0.066594064 0.027558105 -0.09768048 0.22439866 -0.22859417
0.044218343 -0.04997078 -0.281676 -0.25208953 -0.20347968 0.033979084 -0.054616787 -0.18979537
0.09023499 0.013309526 0.13357146 0.0367231 0.014612594 0.040040795 -0.17875814 -0.09258803
0.1082863 -0.11998008 0.067557566 0.14357802 0.11968604 0.29896152 0.25728047 0.19355914
0.10264634 -0.20304707 -0.08640277 -0.08460267 0.28080794 -0.11934229 0.03772471 0.077959694
00000000: 308b 12bd 2743 a83d 05bb 293e 896b 0ebd
00000010: cdea 5f3e 6d50 8f3d f3bc abbd 6809 36bc
00000020: 881e 30be 645f ba3d c860 11be f106 3f3e
00000030: 8fcb 603d 8a16 a1bd 6e2f 463e 2c0d 2d3d
00000040: 370d 6c3e c7bd b9bd f528 cb3d 5eaf d33d
00000050: 7fda d03c db43 00be b021 4ebe b41f 913c
00000060: 7315 72be 9de3 3abe 0953 153d 9fc5 303e
00000070: 002d c1bd 7c5b 103e f872 8ebd b5c9 d63d
00000080: 27dc 34be 189c 3abe 313b 6fbe 3531 0e3d
00000090: 3647 c93d 8379 133d 108f 0a3c 9324 10be
000000a0: 8b93 bdbd 96f0 483e 8852 82bc baef 38be
000000b0: 2118 cebd cacd 013e edec 393e 771f 913c
000000c0: b93e d03d d6dc 783e a8f5 80bc 6b4c 35bc
000000d0: f832 1b3e 5833 813a 040c f23c e102 2cbe
000000e0: 9a46 5e3d d752 183e bacf d73d 450e adbc
000000f0: 0120 023e f8ad 0b3e b744 7a3e b259 77bc
00000100: c279 f63c 247d 133d 4b14 7fbd d6c2 81bd
00000110: 48cc fd3d ae82 bebc e79f 1d3d 1f17 253d
00000120: 4a39 243d 542e 3c3e 48bb 1cbe 7366 113d
00000130: 7ace 9a3c cdfd 3b3e 760d 373e 43c3 463d
00000140: 342c 8dbd 19fd 093d 92e2 dabd c630 093e
00000150: 9de8 1ebe 4798 813d 1ffe 21be 0a0b 48be
00000160: d00b 50be dc78 af3d 7cfa ddbd 794c b23d
00000170: 944b 9f3d 3c41 e0bb 69ae d2bc c7d3 8bbd
00000180: 0147 753d 634b 01be 0d70 e1bd d887 f4bd
00000190: 16b8 2fbe ab49 3cbd e833 44be c142 acbd
000001a0: c5aa 11be a5aa eabd 3706 063e 1ff5 9f3d
000001b0: 3bf1 2f3e 25bb c63d fb7b d73d 9faa 0b3e
000001c0: 35b8 323d 9eae 89bd 6c1f 723d 511a 433e
000001d0: 2a9a 18bd 1ef0 c43d 9e29 213e 645e 0dbe
000001e0: ba93 33be 3047 05be 2166 8dbd e8b9 4abe
000001f0: dd22 4d3d d042 fd3d d32d 8f3c d3ae 23be
00000200: 3263 30be 0139 703d fb4c d33d 74cf 223e
00000210: 39a4 e53b bedf 85bd fc73 023e 4f61 153d
00000220: f766 bf3d 9972 1abe 99a0 c2bc db55 0c3e
00000230: 9e3d 0b3e a2db bcbd aa36 bbbb 035e 953d
00000240: d9c3 c73c 9f42 bbbc 2b92 7b3d fcce 72be
00000250: 7b98 a0bc d051 b2bd 7813 2cbc 38f3 0fbe
00000260: be09 b2bd 6018 c03d 10b1 b63d f6f3 6f3d
00000270: 5eb9 4fbd fabc 323d bed3 f33d 993c 5e3e
00000280: e1bb 59be f0fe 543c d2cd 803d cd3d 55be
00000290: a9b5 f9bd a8db 493d 2b2b 893e cc88 fbbd
000002a0: 95c7 2d3e 86a0 2cbe 9c20 39bd ed82 8b3b
000002b0: c7d2 77be a2fd bebd c587 003e f86d 6a3e
000002c0: 54bd db3c 8403 663e 5c69 38bd 9d77 21bd
000002d0: ce45 a23c 1ab6 e03d d858 1e3e 3f5e b4bd
000002e0: 62e8 f03d 3d11 bf3c 9eda f23d 43d0 20bc
000002f0: afba 2e3e f569 8ebd 1dbc 09bc af80 08be
00000300: d14e 0cbe d680 de3c cd00 3f3e 9186 423e
00000310: b5b3 a7bd 26f6 eabd 13a9 2c3e 3ee1 1a3d
00000320: 8677 18be 94b8 53be d33d 15be ab94 c5bd
00000330: 298d 9a3d f481 77bd 3b20 bfbd 8056 893d
00000340: 0830 aebe c034 d63c ef46 543e 862e ee3d
00000350: 63d7 32bd 0642 e4bd 0478 61bc 4f0c b1bd
00000360: 300f 893d 2c2d 33be dfe6 02be 7862 883d
00000370: 89c1 e13c b40c c8bd c3c8 653e 9714 6abe
00000380: 4b1e 353d 29ae 4cbd d637 90be e111 81be
00000390: fa5c 50be a72d 0b3d dab5 5fbd b859 42be
000003a0: 1fcd b83d 3310 5a3c f5c6 083e f66a 163d
000003b0: a969 6f3c d101 243d 600c 37be cb9e bdbd
000003c0: 35c5 dd3d 1eb8 f5bd 9f5b 8a3d 1e06 133e
000003d0: f41d f53d 7c11 993e 44ba 833e 5e34 463e
000003e0: 3f38 d23d 92eb 4fbe eff3 b0bd 2a44 adbd
000003f0: 0fc6 8f3e bb69 f4bd 3a85 1a3d 55a9 9f3d

bias f4 [64]
0.002757966 0.033976182 -0.009094212 -0.012930139 0.026759978 -0.0366728 0.066916555 -0.05555556
-0.06806712 -0.014601065 -0.04076975 -0.015726069 -0.015382568 0.017062454 -0.025849182 0.043577168
-0.057160214 -0.03512849 -0.03982977 -0.005666545 -0.029799754 -0.07518843 -0.05334951 -0.046200104
-0.03603498 -0.0056428374 0.038277235 0.008782405 -0.024209805 -0.011415876 -0.06486847 -0.0075706365
-0.017005816 -0.022272382 0.004988161 -0.008289163 0.016669333 -0.018694073 -0.014570374 -0.08052145
0.015900362 0.018822296 0.030446162 -0.016100477 0.0001273984 0.022654938 -0.023255449 -0.03715167
-0.023397025 -0.0036190806 -0.031965584 -0.0150055485 0.015567126 -0.01075542 0.039371222 -0.09396249
0.01095798 0.00087709056 0.032881748 -0.022698233 0.027859995 -0.026174638 -0.047315117 0.04534935
00000000: febe 343b 9c2a 0b3d e4ff 14bc efd8 53bc
00000010: be37 db3c 3836 16bd 8c0b 893d 3a8e 63bd
00000020: c666 8bbd 4e39 6fbc 2efe 26bd f5d3 80bc
00000030: 2b07 7cbc 8fc6 8b3c aac1 d3bc f97d 323d
00000040: d420 6abd e4e2 0fbd 8a24 23bd 6dae b9bb
00000050: 9d1e f4bc 64fc 99bd 0485 5abd 523c 3dbd
00000060: 6a99 13bd 8de7 b8bb 97c8 1c3d 14e4 0f3c
00000070: a453 c6bc a809 3bbc c3d9 84bd 1a13 f8bb
00000080: c84f 8bbc 9274 b6bc ba73 a33b 45cf 07bc
00000090: 208e 883c 5024 99bc 94b8 6ebc 6ee8 a4bd
000000a0: 7a41 823c 3731 9a3c 3b6a f93c 26e5 83bc
000000b0: 3f96 0539 d996 b93c 3682 bebc 592c 18bd
000000c0: 1eab bfbc 192e 6dbb 58ee 02bd d5d9 75bc
000000d0: 420d 7f3c 8037 30bc b843 213d 686f c0bd
000000e0: 1989 333c 8dec 653a 03af 063d a5f1 b9bc
000000f0: a53a e43c 326c d6bc 7fcd 41bd 3dc0 393d

weight f4 [64, 64]
0.14715315 -0.15097915 -0.18106149 -0.17737156 -0.24303177 0.12900594 -0.11592374 -0.1893814
0.24644051 -0.03890498 0.097591884 0.034829143 0.11155738 -0.03611492 0.08616575 -0.2732691
0.06512819 -0.10146526 0.049742248 0.2318938 -0.07095083 0.008772908 0.20570962 -0.07490162
-0.10719428 -0.023624135 0.13259193 0.052231777 0.21913521 0.10336144 0.00030563894 -0.040074445
-0.10520689 0.20682085 -0.112507835 -0.1279139 -0.2063092 0.08180966 -0.19234051 0.20207882
0.113198094 -0.095892005 -0.029708436 -0.086192556 -0.2425126 0.02067984 -0.1491171 0.1417645
-0.13629737 -0.08077064 0.037297297 -0.16019961 -0.048789736 -0.12918171 -0.23351412 0.16980487
0.09929799 -0.053761274 0.08972877 0.264536 -0.21451817 0.041839108 -0.038191214 -0.3292321
-0.1440185 0.12254572 -0.057768684 -0.037296012 -0.0060899863 -0.04878706 0.21895958 0.07929201
-0.13029727 0.06150739 -0.05864234 0.017888034 0.1839717 0.099828884 -0.17367168 0.18969403
-0.14841115 0.14201412 0.15773456 -0.16599955 -0.15345837 0.091652595 0.08620692 0.16134085
0.027245529 0.1418368 -0.027558193 0.10453628 0.09258274 -0.056192223 -0.098113306 0.0255334
0.08587481 -0.08220093 -0.17424013 -0.1251941 0.14610516 0.08808797 -0.19861117 0.08426582
0.20019963 0.12455524 -0.13391566 -0.111804105 -0.056936286 -0.08345949 0.051179837 -0.1654845
-0.18902291 -0.14944066 0.18317951 0.047144603 0.07885525 0.08678608 0.18949594 0.010809668
-0.18334691 -0.03769317 -0.0053125657 -0.06583567 -0.1734146 0.033733435 -0.04437068 0.008313434
-0.21495268 -0.108988754 -0.14001617 -0.29206228 -0.1310914 0.02282438 0.09452127 -0.08109236
0.036045868 0.09381829 -0.037867818 -0.14374937 -0.044725124 -0.13369784 0.16739488 -0.20704287
-0.16606845 -0.20571442 0.10942404 0.06956434 -0.004110322 0.18190981 -0.06522001 0.09261433
-0.13984013 -0.12094774 0.27041012 0.024766413 0.0029343625 0.16344461 0.050085094 -0.1326986
0.1646219 -0.16775835 0.24563918 0.021907311 -0.1130141 -0.019541817 -0.1615982 0.052644383
0.23724647 -0.018990178 -0.1482768 0.08902181 0.05884841 0.04379181 -0.15859531 0.15980233
-0.029995972 0.16036166 0.115573876 0.07065148 -0.12076507 0.23132208 -0.19842975 0.22529677
0.09656604 0.093958765 0.048677616 0.118048795 0.13623758 -0.06625244 0.1771726 0.001434806
0.115158916 -0.12355755 -0.1986357 -0.1203093 0.10870659 -0.19034994 -0.19628355 -0.22586337
-0.10144292 -0.003959976 -0.020098273 -0.10070886 0.055019412 0.04551679 0.14587839 0.23650992
-0.17297769 -0.06457705 0.10000958 0.07261618 -0.088877596 -0.13885988 0.041643932 0.1129699
0.06455735 0.06551383 -0.1264193 -0.16722855 -0.029178577 -0.1337441 0.03552947 -0.20135215
0.14640987 -0.037419982 0.23526248 -0.09397897 -0.004621823 0.09083515 0.0036692452 -0.146204
0.123404816 -0.1608024 0.23122174 -0.032516334 0.014291332 -0.043634553 -0.23018414 0.102155596
-0.15350334 -0.14684509 0.05785238 0.18647738 0.04546069 -0.12927802 0.0006606284 -0.17420623
-0.21117914 -0.10022577 -0.0020767893 -0.03345535 0.22551224 -0.05353594 -0.2090878 0.19408879
00000000: 51af 163e 479a 1abe 2f68 39be e4a0 35be
00000010: 52dd 78be 221a 043e 6d69 edbd 33ed 41be
00000020: e75a 7c3e d45a 1fbd 41de c73d 01a9 0e3d
00000030: 3278 e43d 3ded 13bd ab77 b03d ede9 8bbe
00000040: ee61 853d 05cd cfbd 87be 4b3d 9175 6d3e
00000050: ab4e 91bd 3ebc 0f3c 8ba5 523e 0566 99bd
00000060: ad88 dbbd 6787 c1bc 2ec6 073e fdf0 553d
00000070: fb64 603e 2aaf d33d 2a3e a039 1a25 24bd
00000080: b676 d7bd d8c8 533e 826a e6bd ddfb 02be
00000090: b842 53be d38b a73d e9f4 44be c0ed 4e3e
000000a0: 67d4 e73d 0763 c4bd 1b5f f3bc b985 b0bd
000000b0: 3955 78be c568 a93c 27b2 18be b72a 113e
000000c0: 8a91 0bbe 146b a5bd 0dc5 183d 5e0b 24be
000000d0: bfd7 47bd 3648 04be 531e 6fbe 54e1 2d3e
000000e0: bf5c cb3d c834 5cbd b8c3 b73d 4371 873e
000000f0: a7aa 5bbe 7c5f 2b3d 646e 1cbd 1c91 a8be
00000100: 9679 13be 40f9 fa3d db9e 6cbd b4c3 18bd
00000110: 828e c7bb f1d4 47bd f136 603e d963 a23d
00000120: a66c 05be 2cef 7b3d f332 70bd ed89 923c
00000130: 1463 3c3e 1673 cc3d fdd6 31be 273f 423e
00000140: 18f9 17be 266c 113e 2b85 213e c9fb 29be
00000150: 3124 1dbe 5bb4 bb3d 418d b03d 8936 253e
00000160: 0432 df3c ab3d 113e b8c1 e1bc 1e17 d63d
00000170: 059c bd3d d129 66bd a1ef c8bd 6c2b d13c
00000180: 22df af3d f658 a8bd 016c 32be e232 00be
00000190: 979c 153e 7767 b43d ba60 4bbe 8f93 ac3d
000001a0: 2201 4d3e d116 ff3d 3021 09be 8df9 e4bd
000001b0: 0636 69bd cfec aabd f3a1 513d c574 29be
000001c0: 398f 41be f906 19be 6993 3b3e b31a 413d
000001d0: dc7e a13d e6bc b13d 390b 423e 091b 313c
000001e0: 4bbf 3bbe 2764 1abd 0815 aebb dad4 86bd
000001f0: 9993 31be 122c 0a3d 08be 35bd 1235 083c
00000200: 8e1c 5cbe 7f35 dfbd 6660 0fbe 3089 95be
00000210: d33c 06be 32fa ba3c 5e94 c13d c013 a6bd
00000220: d5a4 133d ce23 c03d 491b 1bbd 0933 13be
00000230: b131 37bd 16e8 08be 9069 2b3e 0c03 54be
00000240: d90d 2abe cda6 52be b619 e03d c077 8e3d
00000250: e1af 86bb 9146 3a3e 1292 85bd 95ac bd3d
00000260: 4032 0fbe 73b3 f7bd 3273 8a3e efe2 ca3c
00000270: 6f4e 403b 065e 273e 0726 4d3d 24e2 07be
00000280: a592 283e d8c8 2bbe d688 7b3e f676 b33c
00000290: f073 e7bd 2916 a0bc 007a 25be a3a1 573d
000002a0: bdf0 723e 4a91 9bbc e0d5 17be 1151 b63d
000002b0: 080b 713d 0a5f 333d cf66 22be 39a3 233e
000002c0: 1dba f5bc d935 243e ffb1 ec3d b9b1 903d
000002d0: ad53 f7bd b2df 6c3e 2b31 4bbe 32b4 663e
000002e0: 6ac4 c53d 746d c03d 2e62 473d 91c3 f13d
000002f0: dd81 0b3e 5caf 87bd bc6c 353e 1a10 bc3a
00000300: 70d8 eb3d be0b fdbd 2867 4bbe b964 f6bd
00000310: 90a1 de3d 18eb 42be 8efe 48be ba48 67be
00000320: 4ec1 cfbd b0c2 81bb 22a5 a4bc 7240 cebd
00000330: 095c 613d d06f 3a3d 2561 153e a82f 723e
00000340: 1021 31be f940 84bd d3d1 cc3d cbb7 943d
00000350: 7505 b6bd 4931 0ebe d492 2a3d c35c e73d
00000360: a536 843d 1d2c 863d 1074 01be f63d 2bbe
00000370: e907 efbc 37f4 08be 5987 113d 422f 4ebe
00000380: 78ec 153e b245 19bd a6e8 703e 0c78 c0bd
00000390: a972 97bb c707 ba3d b877 703b 80b6 15be
000003a0: aabb fc3d 62a9 24be 64c5 6c3e d92f 05bd
000003b0: 3126 6a3c 25ba 32bd 64b5 6bbe f436 d13d
000003c0: fb2f 1dbe 8f5e 16be 9ef6 6c3d edf3 3e3e
000003d0: fd34 3a3d 7561 04be 052e 2d3a 1e63 32be
000003e0: 583f 58be 2b43 cdbd be1a 08bb 7a08 09bd
000003f0: aeec 663e 8048 5bbd 1d1b 56be 36bf 463e

bias f4 [64]
-0.03237218 0.018996157 -0.006056529 0.1109259 -0.0014314841 -0.06452454 -0.049029373 -0.016275126
0.01635648 0.022947727 0.050725076 0.013064374 0.023650244 -0.017021677 -0.0066548013 0.11913471
0.026989268 -0.05961339 -0.03587627 0.058269564 7.140311e-05 0.03463746 0.007675488 -0.036065605
0.023716949 0.004309846 -0.05086939 -0.019578498 0.051733904 -0.023394715 0.017381685 -0.052014556
0.06496189 0.0034633984 0.007105994 0.019794522 0.006891187 -0.007486238 0.03784162 -0.010139432
-0.042994175 0.018274482 0.008492796 0.019135151 0.04461463 -0.017176667 0.050473783 -0.035514157
0.054635648 0.07981624 -0.020303978 -0.023136083 -0.07056755 -0.0019210181 0.021347655 -0.033989277
-0.03885767 -0.04425353 0.002939359 -0.07369217 0.04129721 0.070329554 0.018373856 0.019240834
00000000: b198 04bd d49d 9b3c d975 c6bb 1e2d e33d
00000010: a3a0 bbba 7125 84bd 06d3 48bd 6a53 85bc
00000020: 06fe 853c dffc bb3c 19c5 4f3d f50b 563c
00000030: 28be c13c 0b71 8bbc 8510 dabb e6fc f33d
00000040: 9918 dd3c 2c2d 74bd fff2 12bd 11ac 6e3d
00000050: 41be 9538 02e0 0d3d a982 fb3b 87b9 13bd
00000060: 0c4a c23c 9c39 8d3b 6c5c 50bd 1663 a0bc
00000070: eee6 533d 46a6 bfbc 0964 8e3c 370d 55bd
00000080: bd0a 853d 2ffa 623b 66d9 e83b 1f28 a23c
00000090: 77cf e13b 1e4f f5bb d1ff 1a3d dc1f 26bc
000000a0: a91a 30bd 5eb4 953c 5e25 0b3c 52c1 9c3c
000000b0: d5bd 363d 15b6 8cbc 99bd 4e3d 4b77 11bd
000000c0: a1c9 5f3d b276 a33d 8754 a6bc e287 bdbc
000000d0: b885 90bd acca fbba 47e1 ae3c 5738 0bbd
000000e0: 3829 1fbd 3143 35bd 43a2 403b eceb 96bd
000000f0: 4327 293d f108 903d c584 963c f49e 9d3c
